{"format": "graph-model", "generatedBy": "2.18.0", "convertedBy": "TensorFlow.js Converter v4.22.0", "signature": {"inputs": {"keras_tensor": {"name": "keras_tensor:0", "dtype": "DT_FLOAT", "tensorShape": {"dim": [{"size": "-1"}, {"size": "128"}, {"size": "128"}, {"size": "3"}]}}}, "outputs": {"output_0": {"name": "Identity:0", "dtype": "DT_FLOAT", "tensorShape": {"dim": [{"size": "-1"}, {"size": "5"}]}}}}, "modelTopology": {"node": [{"name": "StatefulPartitionedCall/functional_1/block_15_project_BN_1/batchnorm/sub", "op": "Const", "attr": {"value": {"tensor": {"dtype": "DT_FLOAT", "tensorShape": {"dim": [{"size": "160"}]}}}, "dtype": {"type": "DT_FLOAT"}}}, {"name": "StatefulPartitionedCall/functional_1/block_14_project_BN_1/batchnorm/sub", "op": "Const", "attr": {"dtype": {"type": "DT_FLOAT"}, "value": {"tensor": {"dtype": "DT_FLOAT", "tensorShape": {"dim": [{"size": "160"}]}}}}}, {"name": "StatefulPartitionedCall/functional_1/block_12_project_BN_1/batchnorm/sub", "op": "Const", "attr": {"value": {"tensor": {"dtype": "DT_FLOAT", "tensorShape": {"dim": [{"size": "96"}]}}}, "dtype": {"type": "DT_FLOAT"}}}, {"name": "StatefulPartitionedCall/functional_1/block_11_project_BN_1/batchnorm/sub", "op": "Const", "attr": {"dtype": {"type": "DT_FLOAT"}, "value": {"tensor": {"dtype": "DT_FLOAT", "tensorShape": {"dim": [{"size": "96"}]}}}}}, {"name": "StatefulPartitionedCall/functional_1/block_9_project_BN_1/batchnorm/sub", "op": "Const", "attr": {"dtype": {"type": "DT_FLOAT"}, "value": {"tensor": {"dtype": "DT_FLOAT", "tensorShape": {"dim": [{"size": "64"}]}}}}}, {"name": "StatefulPartitionedCall/functional_1/block_8_project_BN_1/batchnorm/sub", "op": "Const", "attr": {"dtype": {"type": "DT_FLOAT"}, "value": {"tensor": {"dtype": "DT_FLOAT", "tensorShape": {"dim": [{"size": "64"}]}}}}}, {"name": "StatefulPartitionedCall/functional_1/block_7_project_BN_1/batchnorm/sub", "op": "Const", "attr": {"value": {"tensor": {"dtype": "DT_FLOAT", "tensorShape": {"dim": [{"size": "64"}]}}}, "dtype": {"type": "DT_FLOAT"}}}, {"name": "StatefulPartitionedCall/functional_1/block_5_project_BN_1/batchnorm/sub", "op": "Const", "attr": {"dtype": {"type": "DT_FLOAT"}, "value": {"tensor": {"dtype": "DT_FLOAT", "tensorShape": {"dim": [{"size": "32"}]}}}}}, {"name": "StatefulPartitionedCall/functional_1/block_4_project_BN_1/batchnorm/sub", "op": "Const", "attr": {"value": {"tensor": {"dtype": "DT_FLOAT", "tensorShape": {"dim": [{"size": "32"}]}}}, "dtype": {"type": "DT_FLOAT"}}}, {"name": "StatefulPartitionedCall/functional_1/block_2_project_BN_1/batchnorm/sub", "op": "Const", "attr": {"dtype": {"type": "DT_FLOAT"}, "value": {"tensor": {"dtype": "DT_FLOAT", "tensorShape": {"dim": [{"size": "24"}]}}}}}, {"name": "StatefulPartitionedCall/functional_1/Conv1_1/convolution/merged_input", "op": "Const", "attr": {"value": {"tensor": {"dtype": "DT_FLOAT", "tensorShape": {"dim": [{"size": "3"}, {"size": "3"}, {"size": "3"}, {"size": "32"}]}}}, "dtype": {"type": "DT_FLOAT"}}}, {"name": "StatefulPartitionedCall/functional_1/bn_Conv1_1/batchnorm/sub", "op": "Const", "attr": {"value": {"tensor": {"dtype": "DT_FLOAT", "tensorShape": {"dim": [{"size": "32"}]}}}, "dtype": {"type": "DT_FLOAT"}}}, {"name": "StatefulPartitionedCall/functional_1/expanded_conv_depthwise_1/depthwise/ReadVariableOp", "op": "Const", "attr": {"value": {"tensor": {"dtype": "DT_FLOAT", "tensorShape": {"dim": [{"size": "3"}, {"size": "3"}, {"size": "32"}, {"size": "1"}]}}}, "dtype": {"type": "DT_FLOAT"}}}, {"name": "StatefulPartitionedCall/functional_1/expanded_conv_depthwise_BN_1/batchnorm/mul", "op": "Const", "attr": {"value": {"tensor": {"dtype": "DT_FLOAT", "tensorShape": {"dim": [{"size": "32"}]}}}, "dtype": {"type": "DT_FLOAT"}}}, {"name": "StatefulPartitionedCall/functional_1/expanded_conv_depthwise_BN_1/batchnorm/sub", "op": "Const", "attr": {"dtype": {"type": "DT_FLOAT"}, "value": {"tensor": {"dtype": "DT_FLOAT", "tensorShape": {"dim": [{"size": "32"}]}}}}}, {"name": "StatefulPartitionedCall/functional_1/expanded_conv_project_1/convolution/merged_input", "op": "Const", "attr": {"value": {"tensor": {"dtype": "DT_FLOAT", "tensorShape": {"dim": [{"size": "1"}, {"size": "1"}, {"size": "32"}, {"size": "16"}]}}}, "dtype": {"type": "DT_FLOAT"}}}, {"name": "StatefulPartitionedCall/functional_1/expanded_conv_project_BN_1/batchnorm/sub", "op": "Const", "attr": {"value": {"tensor": {"dtype": "DT_FLOAT", "tensorShape": {"dim": [{"size": "16"}]}}}, "dtype": {"type": "DT_FLOAT"}}}, {"name": "StatefulPartitionedCall/functional_1/block_1_expand_1/convolution/merged_input", "op": "Const", "attr": {"dtype": {"type": "DT_FLOAT"}, "value": {"tensor": {"dtype": "DT_FLOAT", "tensorShape": {"dim": [{"size": "1"}, {"size": "1"}, {"size": "16"}, {"size": "96"}]}}}}}, {"name": "StatefulPartitionedCall/functional_1/block_1_expand_BN_1/batchnorm/sub", "op": "Const", "attr": {"dtype": {"type": "DT_FLOAT"}, "value": {"tensor": {"dtype": "DT_FLOAT", "tensorShape": {"dim": [{"size": "96"}]}}}}}, {"name": "StatefulPartitionedCall/functional_1/block_1_pad_1/Const", "op": "Const", "attr": {"value": {"tensor": {"dtype": "DT_INT32", "tensorShape": {"dim": [{"size": "4"}, {"size": "2"}]}}}, "dtype": {"type": "DT_INT32"}}}, {"name": "StatefulPartitionedCall/functional_1/block_1_depthwise_1/depthwise/ReadVariableOp", "op": "Const", "attr": {"value": {"tensor": {"dtype": "DT_FLOAT", "tensorShape": {"dim": [{"size": "3"}, {"size": "3"}, {"size": "96"}, {"size": "1"}]}}}, "dtype": {"type": "DT_FLOAT"}}}, {"name": "StatefulPartitionedCall/functional_1/block_1_depthwise_BN_1/batchnorm/mul", "op": "Const", "attr": {"value": {"tensor": {"dtype": "DT_FLOAT", "tensorShape": {"dim": [{"size": "96"}]}}}, "dtype": {"type": "DT_FLOAT"}}}, {"name": "StatefulPartitionedCall/functional_1/block_1_depthwise_BN_1/batchnorm/sub", "op": "Const", "attr": {"value": {"tensor": {"dtype": "DT_FLOAT", "tensorShape": {"dim": [{"size": "96"}]}}}, "dtype": {"type": "DT_FLOAT"}}}, {"name": "StatefulPartitionedCall/functional_1/block_1_project_1/convolution/merged_input", "op": "Const", "attr": {"value": {"tensor": {"dtype": "DT_FLOAT", "tensorShape": {"dim": [{"size": "1"}, {"size": "1"}, {"size": "96"}, {"size": "24"}]}}}, "dtype": {"type": "DT_FLOAT"}}}, {"name": "StatefulPartitionedCall/functional_1/block_1_project_BN_1/batchnorm/sub", "op": "Const", "attr": {"value": {"tensor": {"dtype": "DT_FLOAT", "tensorShape": {"dim": [{"size": "24"}]}}}, "dtype": {"type": "DT_FLOAT"}}}, {"name": "StatefulPartitionedCall/functional_1/block_2_expand_1/convolution/merged_input", "op": "Const", "attr": {"value": {"tensor": {"dtype": "DT_FLOAT", "tensorShape": {"dim": [{"size": "1"}, {"size": "1"}, {"size": "24"}, {"size": "144"}]}}}, "dtype": {"type": "DT_FLOAT"}}}, {"name": "StatefulPartitionedCall/functional_1/block_2_expand_BN_1/batchnorm/sub", "op": "Const", "attr": {"dtype": {"type": "DT_FLOAT"}, "value": {"tensor": {"dtype": "DT_FLOAT", "tensorShape": {"dim": [{"size": "144"}]}}}}}, {"name": "StatefulPartitionedCall/functional_1/block_2_depthwise_1/depthwise/ReadVariableOp", "op": "Const", "attr": {"dtype": {"type": "DT_FLOAT"}, "value": {"tensor": {"dtype": "DT_FLOAT", "tensorShape": {"dim": [{"size": "3"}, {"size": "3"}, {"size": "144"}, {"size": "1"}]}}}}}, {"name": "StatefulPartitionedCall/functional_1/block_2_depthwise_BN_1/batchnorm/mul", "op": "Const", "attr": {"dtype": {"type": "DT_FLOAT"}, "value": {"tensor": {"dtype": "DT_FLOAT", "tensorShape": {"dim": [{"size": "144"}]}}}}}, {"name": "StatefulPartitionedCall/functional_1/block_2_depthwise_BN_1/batchnorm/sub", "op": "Const", "attr": {"dtype": {"type": "DT_FLOAT"}, "value": {"tensor": {"dtype": "DT_FLOAT", "tensorShape": {"dim": [{"size": "144"}]}}}}}, {"name": "StatefulPartitionedCall/functional_1/block_2_project_1/convolution/merged_input", "op": "Const", "attr": {"value": {"tensor": {"dtype": "DT_FLOAT", "tensorShape": {"dim": [{"size": "1"}, {"size": "1"}, {"size": "144"}, {"size": "24"}]}}}, "dtype": {"type": "DT_FLOAT"}}}, {"name": "StatefulPartitionedCall/functional_1/block_3_expand_1/convolution/merged_input", "op": "Const", "attr": {"value": {"tensor": {"dtype": "DT_FLOAT", "tensorShape": {"dim": [{"size": "1"}, {"size": "1"}, {"size": "24"}, {"size": "144"}]}}}, "dtype": {"type": "DT_FLOAT"}}}, {"name": "StatefulPartitionedCall/functional_1/block_3_expand_BN_1/batchnorm/sub", "op": "Const", "attr": {"value": {"tensor": {"dtype": "DT_FLOAT", "tensorShape": {"dim": [{"size": "144"}]}}}, "dtype": {"type": "DT_FLOAT"}}}, {"name": "StatefulPartitionedCall/functional_1/block_3_pad_1/Const", "op": "Const", "attr": {"dtype": {"type": "DT_INT32"}, "value": {"tensor": {"dtype": "DT_INT32", "tensorShape": {"dim": [{"size": "4"}, {"size": "2"}]}}}}}, {"name": "StatefulPartitionedCall/functional_1/block_3_depthwise_1/depthwise/ReadVariableOp", "op": "Const", "attr": {"value": {"tensor": {"dtype": "DT_FLOAT", "tensorShape": {"dim": [{"size": "3"}, {"size": "3"}, {"size": "144"}, {"size": "1"}]}}}, "dtype": {"type": "DT_FLOAT"}}}, {"name": "StatefulPartitionedCall/functional_1/block_3_depthwise_BN_1/batchnorm/mul", "op": "Const", "attr": {"dtype": {"type": "DT_FLOAT"}, "value": {"tensor": {"dtype": "DT_FLOAT", "tensorShape": {"dim": [{"size": "144"}]}}}}}, {"name": "StatefulPartitionedCall/functional_1/block_3_depthwise_BN_1/batchnorm/sub", "op": "Const", "attr": {"dtype": {"type": "DT_FLOAT"}, "value": {"tensor": {"dtype": "DT_FLOAT", "tensorShape": {"dim": [{"size": "144"}]}}}}}, {"name": "StatefulPartitionedCall/functional_1/block_3_project_1/convolution/merged_input", "op": "Const", "attr": {"value": {"tensor": {"dtype": "DT_FLOAT", "tensorShape": {"dim": [{"size": "1"}, {"size": "1"}, {"size": "144"}, {"size": "32"}]}}}, "dtype": {"type": "DT_FLOAT"}}}, {"name": "StatefulPartitionedCall/functional_1/block_3_project_BN_1/batchnorm/sub", "op": "Const", "attr": {"dtype": {"type": "DT_FLOAT"}, "value": {"tensor": {"dtype": "DT_FLOAT", "tensorShape": {"dim": [{"size": "32"}]}}}}}, {"name": "StatefulPartitionedCall/functional_1/block_4_expand_1/convolution/merged_input", "op": "Const", "attr": {"dtype": {"type": "DT_FLOAT"}, "value": {"tensor": {"dtype": "DT_FLOAT", "tensorShape": {"dim": [{"size": "1"}, {"size": "1"}, {"size": "32"}, {"size": "192"}]}}}}}, {"name": "StatefulPartitionedCall/functional_1/block_4_expand_BN_1/batchnorm/sub", "op": "Const", "attr": {"value": {"tensor": {"dtype": "DT_FLOAT", "tensorShape": {"dim": [{"size": "192"}]}}}, "dtype": {"type": "DT_FLOAT"}}}, {"name": "StatefulPartitionedCall/functional_1/block_4_depthwise_1/depthwise/ReadVariableOp", "op": "Const", "attr": {"dtype": {"type": "DT_FLOAT"}, "value": {"tensor": {"dtype": "DT_FLOAT", "tensorShape": {"dim": [{"size": "3"}, {"size": "3"}, {"size": "192"}, {"size": "1"}]}}}}}, {"name": "StatefulPartitionedCall/functional_1/block_4_depthwise_BN_1/batchnorm/mul", "op": "Const", "attr": {"dtype": {"type": "DT_FLOAT"}, "value": {"tensor": {"dtype": "DT_FLOAT", "tensorShape": {"dim": [{"size": "192"}]}}}}}, {"name": "StatefulPartitionedCall/functional_1/block_4_depthwise_BN_1/batchnorm/sub", "op": "Const", "attr": {"value": {"tensor": {"dtype": "DT_FLOAT", "tensorShape": {"dim": [{"size": "192"}]}}}, "dtype": {"type": "DT_FLOAT"}}}, {"name": "StatefulPartitionedCall/functional_1/block_4_project_1/convolution/merged_input", "op": "Const", "attr": {"dtype": {"type": "DT_FLOAT"}, "value": {"tensor": {"dtype": "DT_FLOAT", "tensorShape": {"dim": [{"size": "1"}, {"size": "1"}, {"size": "192"}, {"size": "32"}]}}}}}, {"name": "StatefulPartitionedCall/functional_1/block_5_expand_1/convolution/merged_input", "op": "Const", "attr": {"value": {"tensor": {"dtype": "DT_FLOAT", "tensorShape": {"dim": [{"size": "1"}, {"size": "1"}, {"size": "32"}, {"size": "192"}]}}}, "dtype": {"type": "DT_FLOAT"}}}, {"name": "StatefulPartitionedCall/functional_1/block_5_expand_BN_1/batchnorm/sub", "op": "Const", "attr": {"value": {"tensor": {"dtype": "DT_FLOAT", "tensorShape": {"dim": [{"size": "192"}]}}}, "dtype": {"type": "DT_FLOAT"}}}, {"name": "StatefulPartitionedCall/functional_1/block_5_depthwise_1/depthwise/ReadVariableOp", "op": "Const", "attr": {"value": {"tensor": {"dtype": "DT_FLOAT", "tensorShape": {"dim": [{"size": "3"}, {"size": "3"}, {"size": "192"}, {"size": "1"}]}}}, "dtype": {"type": "DT_FLOAT"}}}, {"name": "StatefulPartitionedCall/functional_1/block_5_depthwise_BN_1/batchnorm/mul", "op": "Const", "attr": {"value": {"tensor": {"dtype": "DT_FLOAT", "tensorShape": {"dim": [{"size": "192"}]}}}, "dtype": {"type": "DT_FLOAT"}}}, {"name": "StatefulPartitionedCall/functional_1/block_5_depthwise_BN_1/batchnorm/sub", "op": "Const", "attr": {"dtype": {"type": "DT_FLOAT"}, "value": {"tensor": {"dtype": "DT_FLOAT", "tensorShape": {"dim": [{"size": "192"}]}}}}}, {"name": "StatefulPartitionedCall/functional_1/block_5_project_1/convolution/merged_input", "op": "Const", "attr": {"dtype": {"type": "DT_FLOAT"}, "value": {"tensor": {"dtype": "DT_FLOAT", "tensorShape": {"dim": [{"size": "1"}, {"size": "1"}, {"size": "192"}, {"size": "32"}]}}}}}, {"name": "StatefulPartitionedCall/functional_1/block_6_expand_1/convolution/merged_input", "op": "Const", "attr": {"dtype": {"type": "DT_FLOAT"}, "value": {"tensor": {"dtype": "DT_FLOAT", "tensorShape": {"dim": [{"size": "1"}, {"size": "1"}, {"size": "32"}, {"size": "192"}]}}}}}, {"name": "StatefulPartitionedCall/functional_1/block_6_expand_BN_1/batchnorm/sub", "op": "Const", "attr": {"dtype": {"type": "DT_FLOAT"}, "value": {"tensor": {"dtype": "DT_FLOAT", "tensorShape": {"dim": [{"size": "192"}]}}}}}, {"name": "StatefulPartitionedCall/functional_1/block_6_pad_1/Const", "op": "Const", "attr": {"value": {"tensor": {"dtype": "DT_INT32", "tensorShape": {"dim": [{"size": "4"}, {"size": "2"}]}}}, "dtype": {"type": "DT_INT32"}}}, {"name": "StatefulPartitionedCall/functional_1/block_6_depthwise_1/depthwise/ReadVariableOp", "op": "Const", "attr": {"dtype": {"type": "DT_FLOAT"}, "value": {"tensor": {"dtype": "DT_FLOAT", "tensorShape": {"dim": [{"size": "3"}, {"size": "3"}, {"size": "192"}, {"size": "1"}]}}}}}, {"name": "StatefulPartitionedCall/functional_1/block_6_depthwise_BN_1/batchnorm/mul", "op": "Const", "attr": {"dtype": {"type": "DT_FLOAT"}, "value": {"tensor": {"dtype": "DT_FLOAT", "tensorShape": {"dim": [{"size": "192"}]}}}}}, {"name": "StatefulPartitionedCall/functional_1/block_6_depthwise_BN_1/batchnorm/sub", "op": "Const", "attr": {"dtype": {"type": "DT_FLOAT"}, "value": {"tensor": {"dtype": "DT_FLOAT", "tensorShape": {"dim": [{"size": "192"}]}}}}}, {"name": "StatefulPartitionedCall/functional_1/block_6_project_1/convolution/merged_input", "op": "Const", "attr": {"dtype": {"type": "DT_FLOAT"}, "value": {"tensor": {"dtype": "DT_FLOAT", "tensorShape": {"dim": [{"size": "1"}, {"size": "1"}, {"size": "192"}, {"size": "64"}]}}}}}, {"name": "StatefulPartitionedCall/functional_1/block_6_project_BN_1/batchnorm/sub", "op": "Const", "attr": {"value": {"tensor": {"dtype": "DT_FLOAT", "tensorShape": {"dim": [{"size": "64"}]}}}, "dtype": {"type": "DT_FLOAT"}}}, {"name": "StatefulPartitionedCall/functional_1/block_7_expand_1/convolution/merged_input", "op": "Const", "attr": {"dtype": {"type": "DT_FLOAT"}, "value": {"tensor": {"dtype": "DT_FLOAT", "tensorShape": {"dim": [{"size": "1"}, {"size": "1"}, {"size": "64"}, {"size": "384"}]}}}}}, {"name": "StatefulPartitionedCall/functional_1/block_7_expand_BN_1/batchnorm/sub", "op": "Const", "attr": {"dtype": {"type": "DT_FLOAT"}, "value": {"tensor": {"dtype": "DT_FLOAT", "tensorShape": {"dim": [{"size": "384"}]}}}}}, {"name": "StatefulPartitionedCall/functional_1/block_7_depthwise_1/depthwise/ReadVariableOp", "op": "Const", "attr": {"dtype": {"type": "DT_FLOAT"}, "value": {"tensor": {"dtype": "DT_FLOAT", "tensorShape": {"dim": [{"size": "3"}, {"size": "3"}, {"size": "384"}, {"size": "1"}]}}}}}, {"name": "StatefulPartitionedCall/functional_1/block_7_depthwise_BN_1/batchnorm/mul", "op": "Const", "attr": {"dtype": {"type": "DT_FLOAT"}, "value": {"tensor": {"dtype": "DT_FLOAT", "tensorShape": {"dim": [{"size": "384"}]}}}}}, {"name": "StatefulPartitionedCall/functional_1/block_7_depthwise_BN_1/batchnorm/sub", "op": "Const", "attr": {"dtype": {"type": "DT_FLOAT"}, "value": {"tensor": {"dtype": "DT_FLOAT", "tensorShape": {"dim": [{"size": "384"}]}}}}}, {"name": "StatefulPartitionedCall/functional_1/block_7_project_1/convolution/merged_input", "op": "Const", "attr": {"dtype": {"type": "DT_FLOAT"}, "value": {"tensor": {"dtype": "DT_FLOAT", "tensorShape": {"dim": [{"size": "1"}, {"size": "1"}, {"size": "384"}, {"size": "64"}]}}}}}, {"name": "StatefulPartitionedCall/functional_1/block_8_expand_1/convolution/merged_input", "op": "Const", "attr": {"dtype": {"type": "DT_FLOAT"}, "value": {"tensor": {"dtype": "DT_FLOAT", "tensorShape": {"dim": [{"size": "1"}, {"size": "1"}, {"size": "64"}, {"size": "384"}]}}}}}, {"name": "StatefulPartitionedCall/functional_1/block_8_expand_BN_1/batchnorm/sub", "op": "Const", "attr": {"value": {"tensor": {"dtype": "DT_FLOAT", "tensorShape": {"dim": [{"size": "384"}]}}}, "dtype": {"type": "DT_FLOAT"}}}, {"name": "StatefulPartitionedCall/functional_1/block_8_depthwise_1/depthwise/ReadVariableOp", "op": "Const", "attr": {"dtype": {"type": "DT_FLOAT"}, "value": {"tensor": {"dtype": "DT_FLOAT", "tensorShape": {"dim": [{"size": "3"}, {"size": "3"}, {"size": "384"}, {"size": "1"}]}}}}}, {"name": "StatefulPartitionedCall/functional_1/block_8_depthwise_BN_1/batchnorm/mul", "op": "Const", "attr": {"dtype": {"type": "DT_FLOAT"}, "value": {"tensor": {"dtype": "DT_FLOAT", "tensorShape": {"dim": [{"size": "384"}]}}}}}, {"name": "StatefulPartitionedCall/functional_1/block_8_depthwise_BN_1/batchnorm/sub", "op": "Const", "attr": {"value": {"tensor": {"dtype": "DT_FLOAT", "tensorShape": {"dim": [{"size": "384"}]}}}, "dtype": {"type": "DT_FLOAT"}}}, {"name": "StatefulPartitionedCall/functional_1/block_8_project_1/convolution/merged_input", "op": "Const", "attr": {"value": {"tensor": {"dtype": "DT_FLOAT", "tensorShape": {"dim": [{"size": "1"}, {"size": "1"}, {"size": "384"}, {"size": "64"}]}}}, "dtype": {"type": "DT_FLOAT"}}}, {"name": "StatefulPartitionedCall/functional_1/block_9_expand_1/convolution/merged_input", "op": "Const", "attr": {"value": {"tensor": {"dtype": "DT_FLOAT", "tensorShape": {"dim": [{"size": "1"}, {"size": "1"}, {"size": "64"}, {"size": "384"}]}}}, "dtype": {"type": "DT_FLOAT"}}}, {"name": "StatefulPartitionedCall/functional_1/block_9_expand_BN_1/batchnorm/sub", "op": "Const", "attr": {"value": {"tensor": {"dtype": "DT_FLOAT", "tensorShape": {"dim": [{"size": "384"}]}}}, "dtype": {"type": "DT_FLOAT"}}}, {"name": "StatefulPartitionedCall/functional_1/block_9_depthwise_1/depthwise/ReadVariableOp", "op": "Const", "attr": {"dtype": {"type": "DT_FLOAT"}, "value": {"tensor": {"dtype": "DT_FLOAT", "tensorShape": {"dim": [{"size": "3"}, {"size": "3"}, {"size": "384"}, {"size": "1"}]}}}}}, {"name": "StatefulPartitionedCall/functional_1/block_9_depthwise_BN_1/batchnorm/mul", "op": "Const", "attr": {"value": {"tensor": {"dtype": "DT_FLOAT", "tensorShape": {"dim": [{"size": "384"}]}}}, "dtype": {"type": "DT_FLOAT"}}}, {"name": "StatefulPartitionedCall/functional_1/block_9_depthwise_BN_1/batchnorm/sub", "op": "Const", "attr": {"dtype": {"type": "DT_FLOAT"}, "value": {"tensor": {"dtype": "DT_FLOAT", "tensorShape": {"dim": [{"size": "384"}]}}}}}, {"name": "StatefulPartitionedCall/functional_1/block_9_project_1/convolution/merged_input", "op": "Const", "attr": {"dtype": {"type": "DT_FLOAT"}, "value": {"tensor": {"dtype": "DT_FLOAT", "tensorShape": {"dim": [{"size": "1"}, {"size": "1"}, {"size": "384"}, {"size": "64"}]}}}}}, {"name": "StatefulPartitionedCall/functional_1/block_10_expand_1/convolution/merged_input", "op": "Const", "attr": {"dtype": {"type": "DT_FLOAT"}, "value": {"tensor": {"dtype": "DT_FLOAT", "tensorShape": {"dim": [{"size": "1"}, {"size": "1"}, {"size": "64"}, {"size": "384"}]}}}}}, {"name": "StatefulPartitionedCall/functional_1/block_10_expand_BN_1/batchnorm/sub", "op": "Const", "attr": {"dtype": {"type": "DT_FLOAT"}, "value": {"tensor": {"dtype": "DT_FLOAT", "tensorShape": {"dim": [{"size": "384"}]}}}}}, {"name": "StatefulPartitionedCall/functional_1/block_10_depthwise_1/depthwise/ReadVariableOp", "op": "Const", "attr": {"dtype": {"type": "DT_FLOAT"}, "value": {"tensor": {"dtype": "DT_FLOAT", "tensorShape": {"dim": [{"size": "3"}, {"size": "3"}, {"size": "384"}, {"size": "1"}]}}}}}, {"name": "StatefulPartitionedCall/functional_1/block_10_depthwise_BN_1/batchnorm/mul", "op": "Const", "attr": {"value": {"tensor": {"dtype": "DT_FLOAT", "tensorShape": {"dim": [{"size": "384"}]}}}, "dtype": {"type": "DT_FLOAT"}}}, {"name": "StatefulPartitionedCall/functional_1/block_10_depthwise_BN_1/batchnorm/sub", "op": "Const", "attr": {"value": {"tensor": {"dtype": "DT_FLOAT", "tensorShape": {"dim": [{"size": "384"}]}}}, "dtype": {"type": "DT_FLOAT"}}}, {"name": "StatefulPartitionedCall/functional_1/block_10_project_1/convolution/merged_input", "op": "Const", "attr": {"value": {"tensor": {"dtype": "DT_FLOAT", "tensorShape": {"dim": [{"size": "1"}, {"size": "1"}, {"size": "384"}, {"size": "96"}]}}}, "dtype": {"type": "DT_FLOAT"}}}, {"name": "StatefulPartitionedCall/functional_1/block_10_project_BN_1/batchnorm/sub", "op": "Const", "attr": {"dtype": {"type": "DT_FLOAT"}, "value": {"tensor": {"dtype": "DT_FLOAT", "tensorShape": {"dim": [{"size": "96"}]}}}}}, {"name": "StatefulPartitionedCall/functional_1/block_11_expand_1/convolution/merged_input", "op": "Const", "attr": {"value": {"tensor": {"dtype": "DT_FLOAT", "tensorShape": {"dim": [{"size": "1"}, {"size": "1"}, {"size": "96"}, {"size": "576"}]}}}, "dtype": {"type": "DT_FLOAT"}}}, {"name": "StatefulPartitionedCall/functional_1/block_11_expand_BN_1/batchnorm/sub", "op": "Const", "attr": {"dtype": {"type": "DT_FLOAT"}, "value": {"tensor": {"dtype": "DT_FLOAT", "tensorShape": {"dim": [{"size": "576"}]}}}}}, {"name": "StatefulPartitionedCall/functional_1/block_11_depthwise_1/depthwise/ReadVariableOp", "op": "Const", "attr": {"dtype": {"type": "DT_FLOAT"}, "value": {"tensor": {"dtype": "DT_FLOAT", "tensorShape": {"dim": [{"size": "3"}, {"size": "3"}, {"size": "576"}, {"size": "1"}]}}}}}, {"name": "StatefulPartitionedCall/functional_1/block_11_depthwise_BN_1/batchnorm/mul", "op": "Const", "attr": {"dtype": {"type": "DT_FLOAT"}, "value": {"tensor": {"dtype": "DT_FLOAT", "tensorShape": {"dim": [{"size": "576"}]}}}}}, {"name": "StatefulPartitionedCall/functional_1/block_11_depthwise_BN_1/batchnorm/sub", "op": "Const", "attr": {"dtype": {"type": "DT_FLOAT"}, "value": {"tensor": {"dtype": "DT_FLOAT", "tensorShape": {"dim": [{"size": "576"}]}}}}}, {"name": "StatefulPartitionedCall/functional_1/block_11_project_1/convolution/merged_input", "op": "Const", "attr": {"value": {"tensor": {"dtype": "DT_FLOAT", "tensorShape": {"dim": [{"size": "1"}, {"size": "1"}, {"size": "576"}, {"size": "96"}]}}}, "dtype": {"type": "DT_FLOAT"}}}, {"name": "StatefulPartitionedCall/functional_1/block_12_expand_1/convolution/merged_input", "op": "Const", "attr": {"dtype": {"type": "DT_FLOAT"}, "value": {"tensor": {"dtype": "DT_FLOAT", "tensorShape": {"dim": [{"size": "1"}, {"size": "1"}, {"size": "96"}, {"size": "576"}]}}}}}, {"name": "StatefulPartitionedCall/functional_1/block_12_expand_BN_1/batchnorm/sub", "op": "Const", "attr": {"value": {"tensor": {"dtype": "DT_FLOAT", "tensorShape": {"dim": [{"size": "576"}]}}}, "dtype": {"type": "DT_FLOAT"}}}, {"name": "StatefulPartitionedCall/functional_1/block_12_depthwise_1/depthwise/ReadVariableOp", "op": "Const", "attr": {"value": {"tensor": {"dtype": "DT_FLOAT", "tensorShape": {"dim": [{"size": "3"}, {"size": "3"}, {"size": "576"}, {"size": "1"}]}}}, "dtype": {"type": "DT_FLOAT"}}}, {"name": "StatefulPartitionedCall/functional_1/block_12_depthwise_BN_1/batchnorm/mul", "op": "Const", "attr": {"value": {"tensor": {"dtype": "DT_FLOAT", "tensorShape": {"dim": [{"size": "576"}]}}}, "dtype": {"type": "DT_FLOAT"}}}, {"name": "StatefulPartitionedCall/functional_1/block_12_depthwise_BN_1/batchnorm/sub", "op": "Const", "attr": {"dtype": {"type": "DT_FLOAT"}, "value": {"tensor": {"dtype": "DT_FLOAT", "tensorShape": {"dim": [{"size": "576"}]}}}}}, {"name": "StatefulPartitionedCall/functional_1/block_12_project_1/convolution/merged_input", "op": "Const", "attr": {"value": {"tensor": {"dtype": "DT_FLOAT", "tensorShape": {"dim": [{"size": "1"}, {"size": "1"}, {"size": "576"}, {"size": "96"}]}}}, "dtype": {"type": "DT_FLOAT"}}}, {"name": "StatefulPartitionedCall/functional_1/block_13_expand_1/convolution/merged_input", "op": "Const", "attr": {"dtype": {"type": "DT_FLOAT"}, "value": {"tensor": {"dtype": "DT_FLOAT", "tensorShape": {"dim": [{"size": "1"}, {"size": "1"}, {"size": "96"}, {"size": "576"}]}}}}}, {"name": "StatefulPartitionedCall/functional_1/block_13_expand_BN_1/batchnorm/sub", "op": "Const", "attr": {"value": {"tensor": {"dtype": "DT_FLOAT", "tensorShape": {"dim": [{"size": "576"}]}}}, "dtype": {"type": "DT_FLOAT"}}}, {"name": "StatefulPartitionedCall/functional_1/block_13_pad_1/Const", "op": "Const", "attr": {"dtype": {"type": "DT_INT32"}, "value": {"tensor": {"dtype": "DT_INT32", "tensorShape": {"dim": [{"size": "4"}, {"size": "2"}]}}}}}, {"name": "StatefulPartitionedCall/functional_1/block_13_depthwise_1/depthwise/ReadVariableOp", "op": "Const", "attr": {"dtype": {"type": "DT_FLOAT"}, "value": {"tensor": {"dtype": "DT_FLOAT", "tensorShape": {"dim": [{"size": "3"}, {"size": "3"}, {"size": "576"}, {"size": "1"}]}}}}}, {"name": "StatefulPartitionedCall/functional_1/block_13_depthwise_BN_1/batchnorm/mul", "op": "Const", "attr": {"value": {"tensor": {"dtype": "DT_FLOAT", "tensorShape": {"dim": [{"size": "576"}]}}}, "dtype": {"type": "DT_FLOAT"}}}, {"name": "StatefulPartitionedCall/functional_1/block_13_depthwise_BN_1/batchnorm/sub", "op": "Const", "attr": {"dtype": {"type": "DT_FLOAT"}, "value": {"tensor": {"dtype": "DT_FLOAT", "tensorShape": {"dim": [{"size": "576"}]}}}}}, {"name": "StatefulPartitionedCall/functional_1/block_13_project_1/convolution/merged_input", "op": "Const", "attr": {"value": {"tensor": {"dtype": "DT_FLOAT", "tensorShape": {"dim": [{"size": "1"}, {"size": "1"}, {"size": "576"}, {"size": "160"}]}}}, "dtype": {"type": "DT_FLOAT"}}}, {"name": "StatefulPartitionedCall/functional_1/block_13_project_BN_1/batchnorm/sub", "op": "Const", "attr": {"dtype": {"type": "DT_FLOAT"}, "value": {"tensor": {"dtype": "DT_FLOAT", "tensorShape": {"dim": [{"size": "160"}]}}}}}, {"name": "StatefulPartitionedCall/functional_1/block_14_expand_1/convolution/merged_input", "op": "Const", "attr": {"dtype": {"type": "DT_FLOAT"}, "value": {"tensor": {"dtype": "DT_FLOAT", "tensorShape": {"dim": [{"size": "1"}, {"size": "1"}, {"size": "160"}, {"size": "960"}]}}}}}, {"name": "StatefulPartitionedCall/functional_1/block_14_expand_BN_1/batchnorm/sub", "op": "Const", "attr": {"dtype": {"type": "DT_FLOAT"}, "value": {"tensor": {"dtype": "DT_FLOAT", "tensorShape": {"dim": [{"size": "960"}]}}}}}, {"name": "StatefulPartitionedCall/functional_1/block_14_depthwise_1/depthwise/ReadVariableOp", "op": "Const", "attr": {"dtype": {"type": "DT_FLOAT"}, "value": {"tensor": {"dtype": "DT_FLOAT", "tensorShape": {"dim": [{"size": "3"}, {"size": "3"}, {"size": "960"}, {"size": "1"}]}}}}}, {"name": "StatefulPartitionedCall/functional_1/block_14_depthwise_BN_1/batchnorm/mul", "op": "Const", "attr": {"dtype": {"type": "DT_FLOAT"}, "value": {"tensor": {"dtype": "DT_FLOAT", "tensorShape": {"dim": [{"size": "960"}]}}}}}, {"name": "StatefulPartitionedCall/functional_1/block_14_depthwise_BN_1/batchnorm/sub", "op": "Const", "attr": {"value": {"tensor": {"dtype": "DT_FLOAT", "tensorShape": {"dim": [{"size": "960"}]}}}, "dtype": {"type": "DT_FLOAT"}}}, {"name": "StatefulPartitionedCall/functional_1/block_14_project_1/convolution/merged_input", "op": "Const", "attr": {"value": {"tensor": {"dtype": "DT_FLOAT", "tensorShape": {"dim": [{"size": "1"}, {"size": "1"}, {"size": "960"}, {"size": "160"}]}}}, "dtype": {"type": "DT_FLOAT"}}}, {"name": "StatefulPartitionedCall/functional_1/block_15_expand_1/convolution/merged_input", "op": "Const", "attr": {"dtype": {"type": "DT_FLOAT"}, "value": {"tensor": {"dtype": "DT_FLOAT", "tensorShape": {"dim": [{"size": "1"}, {"size": "1"}, {"size": "160"}, {"size": "960"}]}}}}}, {"name": "StatefulPartitionedCall/functional_1/block_15_expand_BN_1/batchnorm/sub", "op": "Const", "attr": {"dtype": {"type": "DT_FLOAT"}, "value": {"tensor": {"dtype": "DT_FLOAT", "tensorShape": {"dim": [{"size": "960"}]}}}}}, {"name": "StatefulPartitionedCall/functional_1/block_15_depthwise_1/depthwise/ReadVariableOp", "op": "Const", "attr": {"dtype": {"type": "DT_FLOAT"}, "value": {"tensor": {"dtype": "DT_FLOAT", "tensorShape": {"dim": [{"size": "3"}, {"size": "3"}, {"size": "960"}, {"size": "1"}]}}}}}, {"name": "StatefulPartitionedCall/functional_1/block_15_depthwise_BN_1/batchnorm/mul", "op": "Const", "attr": {"dtype": {"type": "DT_FLOAT"}, "value": {"tensor": {"dtype": "DT_FLOAT", "tensorShape": {"dim": [{"size": "960"}]}}}}}, {"name": "StatefulPartitionedCall/functional_1/block_15_depthwise_BN_1/batchnorm/sub", "op": "Const", "attr": {"dtype": {"type": "DT_FLOAT"}, "value": {"tensor": {"dtype": "DT_FLOAT", "tensorShape": {"dim": [{"size": "960"}]}}}}}, {"name": "StatefulPartitionedCall/functional_1/block_15_project_1/convolution/merged_input", "op": "Const", "attr": {"dtype": {"type": "DT_FLOAT"}, "value": {"tensor": {"dtype": "DT_FLOAT", "tensorShape": {"dim": [{"size": "1"}, {"size": "1"}, {"size": "960"}, {"size": "160"}]}}}}}, {"name": "StatefulPartitionedCall/functional_1/block_16_expand_1/convolution/merged_input", "op": "Const", "attr": {"dtype": {"type": "DT_FLOAT"}, "value": {"tensor": {"dtype": "DT_FLOAT", "tensorShape": {"dim": [{"size": "1"}, {"size": "1"}, {"size": "160"}, {"size": "960"}]}}}}}, {"name": "StatefulPartitionedCall/functional_1/block_16_expand_BN_1/batchnorm/sub", "op": "Const", "attr": {"value": {"tensor": {"dtype": "DT_FLOAT", "tensorShape": {"dim": [{"size": "960"}]}}}, "dtype": {"type": "DT_FLOAT"}}}, {"name": "StatefulPartitionedCall/functional_1/block_16_depthwise_1/depthwise/ReadVariableOp", "op": "Const", "attr": {"dtype": {"type": "DT_FLOAT"}, "value": {"tensor": {"dtype": "DT_FLOAT", "tensorShape": {"dim": [{"size": "3"}, {"size": "3"}, {"size": "960"}, {"size": "1"}]}}}}}, {"name": "StatefulPartitionedCall/functional_1/block_16_depthwise_BN_1/batchnorm/mul", "op": "Const", "attr": {"value": {"tensor": {"dtype": "DT_FLOAT", "tensorShape": {"dim": [{"size": "960"}]}}}, "dtype": {"type": "DT_FLOAT"}}}, {"name": "StatefulPartitionedCall/functional_1/block_16_depthwise_BN_1/batchnorm/sub", "op": "Const", "attr": {"dtype": {"type": "DT_FLOAT"}, "value": {"tensor": {"dtype": "DT_FLOAT", "tensorShape": {"dim": [{"size": "960"}]}}}}}, {"name": "StatefulPartitionedCall/functional_1/block_16_project_1/convolution/merged_input", "op": "Const", "attr": {"dtype": {"type": "DT_FLOAT"}, "value": {"tensor": {"dtype": "DT_FLOAT", "tensorShape": {"dim": [{"size": "1"}, {"size": "1"}, {"size": "960"}, {"size": "320"}]}}}}}, {"name": "StatefulPartitionedCall/functional_1/block_16_project_BN_1/batchnorm/sub", "op": "Const", "attr": {"dtype": {"type": "DT_FLOAT"}, "value": {"tensor": {"dtype": "DT_FLOAT", "tensorShape": {"dim": [{"size": "320"}]}}}}}, {"name": "StatefulPartitionedCall/functional_1/Conv_1_1/convolution/merged_input", "op": "Const", "attr": {"value": {"tensor": {"dtype": "DT_FLOAT", "tensorShape": {"dim": [{"size": "1"}, {"size": "1"}, {"size": "320"}, {"size": "1280"}]}}}, "dtype": {"type": "DT_FLOAT"}}}, {"name": "StatefulPartitionedCall/functional_1/Conv_1_bn_1/batchnorm/sub", "op": "Const", "attr": {"dtype": {"type": "DT_FLOAT"}, "value": {"tensor": {"dtype": "DT_FLOAT", "tensorShape": {"dim": [{"size": "1280"}]}}}}}, {"name": "StatefulPartitionedCall/functional_1/global_average_pooling2d_1/Mean/reduction_indices", "op": "Const", "attr": {"dtype": {"type": "DT_INT32"}, "value": {"tensor": {"dtype": "DT_INT32", "tensorShape": {"dim": [{"size": "2"}]}}}}}, {"name": "StatefulPartitionedCall/functional_1/dense_1/Cast/ReadVariableOp", "op": "Const", "attr": {"value": {"tensor": {"dtype": "DT_FLOAT", "tensorShape": {"dim": [{"size": "1280"}, {"size": "128"}]}}}, "dtype": {"type": "DT_FLOAT"}}}, {"name": "StatefulPartitionedCall/functional_1/dense_1/Add/ReadVariableOp", "op": "Const", "attr": {"value": {"tensor": {"dtype": "DT_FLOAT", "tensorShape": {"dim": [{"size": "128"}]}}}, "dtype": {"type": "DT_FLOAT"}}}, {"name": "StatefulPartitionedCall/functional_1/dense_1_2/Cast/ReadVariableOp", "op": "Const", "attr": {"value": {"tensor": {"dtype": "DT_FLOAT", "tensorShape": {"dim": [{"size": "128"}, {"size": "5"}]}}}, "dtype": {"type": "DT_FLOAT"}}}, {"name": "StatefulPartitionedCall/functional_1/dense_1_2/Add/ReadVariableOp", "op": "Const", "attr": {"dtype": {"type": "DT_FLOAT"}, "value": {"tensor": {"dtype": "DT_FLOAT", "tensorShape": {"dim": [{"size": "5"}]}}}}}, {"name": "keras_tensor", "op": "Placeholder", "attr": {"dtype": {"type": "DT_FLOAT"}, "shape": {"shape": {"dim": [{"size": "-1"}, {"size": "128"}, {"size": "128"}, {"size": "3"}]}}}}, {"name": "StatefulPartitionedCall/functional_1/Conv1_relu_1/Relu6", "op": "_FusedConv2D", "input": ["keras_tensor", "StatefulPartitionedCall/functional_1/Conv1_1/convolution/merged_input", "StatefulPartitionedCall/functional_1/bn_Conv1_1/batchnorm/sub"], "device": "/device:CPU:0", "attr": {"TArgs": {"list": {"type": ["DT_FLOAT"]}}, "strides": {"list": {"i": ["1", "2", "2", "1"]}}, "leakyrelu_alpha": {"f": 0.2}, "explicit_paddings": {"list": {}}, "filter_format": {"s": "SFdJTw=="}, "num_args": {"i": "1"}, "data_format": {"s": "TkhXQw=="}, "T": {"type": "DT_FLOAT"}, "epsilon": {"f": 0.0}, "dilations": {"list": {"i": ["1", "1", "1", "1"]}}, "use_cudnn_on_gpu": {"b": true}, "fused_ops": {"list": {"s": ["Qmlhc0FkZA==", "UmVsdTY="]}}, "num_host_args": {"i": "0"}, "padding": {"s": "U0FNRQ=="}}}, {"name": "StatefulPartitionedCall/functional_1/expanded_conv_depthwise_1/depthwise", "op": "DepthwiseConv2dNative", "input": ["StatefulPartitionedCall/functional_1/Conv1_relu_1/Relu6", "StatefulPartitionedCall/functional_1/expanded_conv_depthwise_1/depthwise/ReadVariableOp"], "attr": {"dilations": {"list": {"i": ["1", "1", "1", "1"]}}, "padding": {"s": "U0FNRQ=="}, "explicit_paddings": {"list": {}}, "strides": {"list": {"i": ["1", "1", "1", "1"]}}, "data_format": {"s": "TkhXQw=="}, "T": {"type": "DT_FLOAT"}}}, {"name": "StatefulPartitionedCall/functional_1/expanded_conv_depthwise_BN_1/batchnorm/mul_1", "op": "Mul", "input": ["StatefulPartitionedCall/functional_1/expanded_conv_depthwise_1/depthwise", "StatefulPartitionedCall/functional_1/expanded_conv_depthwise_BN_1/batchnorm/mul"], "attr": {"T": {"type": "DT_FLOAT"}}}, {"name": "StatefulPartitionedCall/functional_1/expanded_conv_depthwise_BN_1/batchnorm/add_1", "op": "AddV2", "input": ["StatefulPartitionedCall/functional_1/expanded_conv_depthwise_BN_1/batchnorm/mul_1", "StatefulPartitionedCall/functional_1/expanded_conv_depthwise_BN_1/batchnorm/sub"], "attr": {"T": {"type": "DT_FLOAT"}}}, {"name": "StatefulPartitionedCall/functional_1/expanded_conv_depthwise_relu_1/Relu6", "op": "Relu6", "input": ["StatefulPartitionedCall/functional_1/expanded_conv_depthwise_BN_1/batchnorm/add_1"], "attr": {"T": {"type": "DT_FLOAT"}}}, {"name": "StatefulPartitionedCall/functional_1/expanded_conv_project_BN_1/batchnorm/add_1", "op": "_FusedConv2D", "input": ["StatefulPartitionedCall/functional_1/expanded_conv_depthwise_relu_1/Relu6", "StatefulPartitionedCall/functional_1/expanded_conv_project_1/convolution/merged_input", "StatefulPartitionedCall/functional_1/expanded_conv_project_BN_1/batchnorm/sub"], "device": "/device:CPU:0", "attr": {"strides": {"list": {"i": ["1", "1", "1", "1"]}}, "data_format": {"s": "TkhXQw=="}, "TArgs": {"list": {"type": ["DT_FLOAT"]}}, "leakyrelu_alpha": {"f": 0.2}, "num_args": {"i": "1"}, "dilations": {"list": {"i": ["1", "1", "1", "1"]}}, "padding": {"s": "U0FNRQ=="}, "filter_format": {"s": "SFdJTw=="}, "T": {"type": "DT_FLOAT"}, "epsilon": {"f": 0.0}, "fused_ops": {"list": {"s": ["Qmlhc0FkZA=="]}}, "use_cudnn_on_gpu": {"b": true}, "num_host_args": {"i": "0"}, "explicit_paddings": {"list": {}}}}, {"name": "StatefulPartitionedCall/functional_1/block_1_expand_relu_1/Relu6", "op": "_FusedConv2D", "input": ["StatefulPartitionedCall/functional_1/expanded_conv_project_BN_1/batchnorm/add_1", "StatefulPartitionedCall/functional_1/block_1_expand_1/convolution/merged_input", "StatefulPartitionedCall/functional_1/block_1_expand_BN_1/batchnorm/sub"], "device": "/device:CPU:0", "attr": {"TArgs": {"list": {"type": ["DT_FLOAT"]}}, "num_args": {"i": "1"}, "fused_ops": {"list": {"s": ["Qmlhc0FkZA==", "UmVsdTY="]}}, "use_cudnn_on_gpu": {"b": true}, "padding": {"s": "U0FNRQ=="}, "leakyrelu_alpha": {"f": 0.2}, "explicit_paddings": {"list": {}}, "dilations": {"list": {"i": ["1", "1", "1", "1"]}}, "num_host_args": {"i": "0"}, "epsilon": {"f": 0.0}, "strides": {"list": {"i": ["1", "1", "1", "1"]}}, "data_format": {"s": "TkhXQw=="}, "filter_format": {"s": "SFdJTw=="}, "T": {"type": "DT_FLOAT"}}}, {"name": "StatefulPartitionedCall/functional_1/block_1_pad_1/Pad", "op": "Pad", "input": ["StatefulPartitionedCall/functional_1/block_1_expand_relu_1/Relu6", "StatefulPartitionedCall/functional_1/block_1_pad_1/Const"], "attr": {"Tpaddings": {"type": "DT_INT32"}, "T": {"type": "DT_FLOAT"}}}, {"name": "StatefulPartitionedCall/functional_1/block_1_depthwise_1/depthwise", "op": "DepthwiseConv2dNative", "input": ["StatefulPartitionedCall/functional_1/block_1_pad_1/Pad", "StatefulPartitionedCall/functional_1/block_1_depthwise_1/depthwise/ReadVariableOp"], "attr": {"explicit_paddings": {"list": {}}, "T": {"type": "DT_FLOAT"}, "data_format": {"s": "TkhXQw=="}, "strides": {"list": {"i": ["1", "2", "2", "1"]}}, "padding": {"s": "VkFMSUQ="}, "dilations": {"list": {"i": ["1", "1", "1", "1"]}}}}, {"name": "StatefulPartitionedCall/functional_1/block_1_depthwise_BN_1/batchnorm/mul_1", "op": "Mul", "input": ["StatefulPartitionedCall/functional_1/block_1_depthwise_1/depthwise", "StatefulPartitionedCall/functional_1/block_1_depthwise_BN_1/batchnorm/mul"], "attr": {"T": {"type": "DT_FLOAT"}}}, {"name": "StatefulPartitionedCall/functional_1/block_1_depthwise_BN_1/batchnorm/add_1", "op": "AddV2", "input": ["StatefulPartitionedCall/functional_1/block_1_depthwise_BN_1/batchnorm/mul_1", "StatefulPartitionedCall/functional_1/block_1_depthwise_BN_1/batchnorm/sub"], "attr": {"T": {"type": "DT_FLOAT"}}}, {"name": "StatefulPartitionedCall/functional_1/block_1_depthwise_relu_1/Relu6", "op": "Relu6", "input": ["StatefulPartitionedCall/functional_1/block_1_depthwise_BN_1/batchnorm/add_1"], "attr": {"T": {"type": "DT_FLOAT"}}}, {"name": "StatefulPartitionedCall/functional_1/block_1_project_BN_1/batchnorm/add_1", "op": "_FusedConv2D", "input": ["StatefulPartitionedCall/functional_1/block_1_depthwise_relu_1/Relu6", "StatefulPartitionedCall/functional_1/block_1_project_1/convolution/merged_input", "StatefulPartitionedCall/functional_1/block_1_project_BN_1/batchnorm/sub"], "device": "/device:CPU:0", "attr": {"num_host_args": {"i": "0"}, "dilations": {"list": {"i": ["1", "1", "1", "1"]}}, "padding": {"s": "U0FNRQ=="}, "fused_ops": {"list": {"s": ["Qmlhc0FkZA=="]}}, "epsilon": {"f": 0.0}, "strides": {"list": {"i": ["1", "1", "1", "1"]}}, "num_args": {"i": "1"}, "TArgs": {"list": {"type": ["DT_FLOAT"]}}, "T": {"type": "DT_FLOAT"}, "filter_format": {"s": "SFdJTw=="}, "use_cudnn_on_gpu": {"b": true}, "explicit_paddings": {"list": {}}, "data_format": {"s": "TkhXQw=="}, "leakyrelu_alpha": {"f": 0.2}}}, {"name": "StatefulPartitionedCall/functional_1/block_2_expand_relu_1/Relu6", "op": "_FusedConv2D", "input": ["StatefulPartitionedCall/functional_1/block_1_project_BN_1/batchnorm/add_1", "StatefulPartitionedCall/functional_1/block_2_expand_1/convolution/merged_input", "StatefulPartitionedCall/functional_1/block_2_expand_BN_1/batchnorm/sub"], "device": "/device:CPU:0", "attr": {"TArgs": {"list": {"type": ["DT_FLOAT"]}}, "num_host_args": {"i": "0"}, "filter_format": {"s": "SFdJTw=="}, "dilations": {"list": {"i": ["1", "1", "1", "1"]}}, "padding": {"s": "U0FNRQ=="}, "epsilon": {"f": 0.0}, "strides": {"list": {"i": ["1", "1", "1", "1"]}}, "explicit_paddings": {"list": {}}, "leakyrelu_alpha": {"f": 0.2}, "num_args": {"i": "1"}, "fused_ops": {"list": {"s": ["Qmlhc0FkZA==", "UmVsdTY="]}}, "use_cudnn_on_gpu": {"b": true}, "T": {"type": "DT_FLOAT"}, "data_format": {"s": "TkhXQw=="}}}, {"name": "StatefulPartitionedCall/functional_1/block_2_depthwise_1/depthwise", "op": "DepthwiseConv2dNative", "input": ["StatefulPartitionedCall/functional_1/block_2_expand_relu_1/Relu6", "StatefulPartitionedCall/functional_1/block_2_depthwise_1/depthwise/ReadVariableOp"], "attr": {"strides": {"list": {"i": ["1", "1", "1", "1"]}}, "data_format": {"s": "TkhXQw=="}, "dilations": {"list": {"i": ["1", "1", "1", "1"]}}, "explicit_paddings": {"list": {}}, "T": {"type": "DT_FLOAT"}, "padding": {"s": "U0FNRQ=="}}}, {"name": "StatefulPartitionedCall/functional_1/block_2_depthwise_BN_1/batchnorm/mul_1", "op": "Mul", "input": ["StatefulPartitionedCall/functional_1/block_2_depthwise_1/depthwise", "StatefulPartitionedCall/functional_1/block_2_depthwise_BN_1/batchnorm/mul"], "attr": {"T": {"type": "DT_FLOAT"}}}, {"name": "StatefulPartitionedCall/functional_1/block_2_depthwise_BN_1/batchnorm/add_1", "op": "AddV2", "input": ["StatefulPartitionedCall/functional_1/block_2_depthwise_BN_1/batchnorm/mul_1", "StatefulPartitionedCall/functional_1/block_2_depthwise_BN_1/batchnorm/sub"], "attr": {"T": {"type": "DT_FLOAT"}}}, {"name": "StatefulPartitionedCall/functional_1/block_2_depthwise_relu_1/Relu6", "op": "Relu6", "input": ["StatefulPartitionedCall/functional_1/block_2_depthwise_BN_1/batchnorm/add_1"], "attr": {"T": {"type": "DT_FLOAT"}}}, {"name": "StatefulPartitionedCall/functional_1/block_2_project_BN_1/batchnorm/mul_1", "op": "Conv2D", "input": ["StatefulPartitionedCall/functional_1/block_2_depthwise_relu_1/Relu6", "StatefulPartitionedCall/functional_1/block_2_project_1/convolution/merged_input"], "device": "/device:CPU:0", "attr": {"padding": {"s": "U0FNRQ=="}, "strides": {"list": {"i": ["1", "1", "1", "1"]}}, "explicit_paddings": {"list": {}}, "T": {"type": "DT_FLOAT"}, "data_format": {"s": "TkhXQw=="}, "dilations": {"list": {"i": ["1", "1", "1", "1"]}}, "use_cudnn_on_gpu": {"b": true}}}, {"name": "StatefulPartitionedCall/functional_1/block_2_add_1/ArithmeticOptimizer/AddOpsRewrite_Leaf_1_Add", "op": "AddN", "input": ["StatefulPartitionedCall/functional_1/block_1_project_BN_1/batchnorm/add_1", "StatefulPartitionedCall/functional_1/block_2_project_BN_1/batchnorm/mul_1"], "attr": {"N": {"i": "2"}, "_grappler_ArithmeticOptimizer_AddOpsRewriteStage": {"b": true}, "T": {"type": "DT_FLOAT"}}}, {"name": "StatefulPartitionedCall/functional_1/block_2_add_1/ArithmeticOptimizer/AddOpsRewrite_Add", "op": "AddV2", "input": ["StatefulPartitionedCall/functional_1/block_2_project_BN_1/batchnorm/sub", "StatefulPartitionedCall/functional_1/block_2_add_1/ArithmeticOptimizer/AddOpsRewrite_Leaf_1_Add"], "attr": {"T": {"type": "DT_FLOAT"}, "_grappler_ArithmeticOptimizer_AddOpsRewriteStage": {"b": true}}}, {"name": "StatefulPartitionedCall/functional_1/block_3_expand_relu_1/Relu6", "op": "_FusedConv2D", "input": ["StatefulPartitionedCall/functional_1/block_2_add_1/ArithmeticOptimizer/AddOpsRewrite_Add", "StatefulPartitionedCall/functional_1/block_3_expand_1/convolution/merged_input", "StatefulPartitionedCall/functional_1/block_3_expand_BN_1/batchnorm/sub"], "device": "/device:CPU:0", "attr": {"num_host_args": {"i": "0"}, "fused_ops": {"list": {"s": ["Qmlhc0FkZA==", "UmVsdTY="]}}, "explicit_paddings": {"list": {}}, "filter_format": {"s": "SFdJTw=="}, "leakyrelu_alpha": {"f": 0.2}, "strides": {"list": {"i": ["1", "1", "1", "1"]}}, "epsilon": {"f": 0.0}, "padding": {"s": "U0FNRQ=="}, "T": {"type": "DT_FLOAT"}, "use_cudnn_on_gpu": {"b": true}, "data_format": {"s": "TkhXQw=="}, "TArgs": {"list": {"type": ["DT_FLOAT"]}}, "dilations": {"list": {"i": ["1", "1", "1", "1"]}}, "num_args": {"i": "1"}}}, {"name": "StatefulPartitionedCall/functional_1/block_3_pad_1/Pad", "op": "Pad", "input": ["StatefulPartitionedCall/functional_1/block_3_expand_relu_1/Relu6", "StatefulPartitionedCall/functional_1/block_3_pad_1/Const"], "attr": {"Tpaddings": {"type": "DT_INT32"}, "T": {"type": "DT_FLOAT"}}}, {"name": "StatefulPartitionedCall/functional_1/block_3_depthwise_1/depthwise", "op": "DepthwiseConv2dNative", "input": ["StatefulPartitionedCall/functional_1/block_3_pad_1/Pad", "StatefulPartitionedCall/functional_1/block_3_depthwise_1/depthwise/ReadVariableOp"], "attr": {"T": {"type": "DT_FLOAT"}, "strides": {"list": {"i": ["1", "2", "2", "1"]}}, "explicit_paddings": {"list": {}}, "padding": {"s": "VkFMSUQ="}, "dilations": {"list": {"i": ["1", "1", "1", "1"]}}, "data_format": {"s": "TkhXQw=="}}}, {"name": "StatefulPartitionedCall/functional_1/block_3_depthwise_BN_1/batchnorm/mul_1", "op": "Mul", "input": ["StatefulPartitionedCall/functional_1/block_3_depthwise_1/depthwise", "StatefulPartitionedCall/functional_1/block_3_depthwise_BN_1/batchnorm/mul"], "attr": {"T": {"type": "DT_FLOAT"}}}, {"name": "StatefulPartitionedCall/functional_1/block_3_depthwise_BN_1/batchnorm/add_1", "op": "AddV2", "input": ["StatefulPartitionedCall/functional_1/block_3_depthwise_BN_1/batchnorm/mul_1", "StatefulPartitionedCall/functional_1/block_3_depthwise_BN_1/batchnorm/sub"], "attr": {"T": {"type": "DT_FLOAT"}}}, {"name": "StatefulPartitionedCall/functional_1/block_3_depthwise_relu_1/Relu6", "op": "Relu6", "input": ["StatefulPartitionedCall/functional_1/block_3_depthwise_BN_1/batchnorm/add_1"], "attr": {"T": {"type": "DT_FLOAT"}}}, {"name": "StatefulPartitionedCall/functional_1/block_3_project_BN_1/batchnorm/add_1", "op": "_FusedConv2D", "input": ["StatefulPartitionedCall/functional_1/block_3_depthwise_relu_1/Relu6", "StatefulPartitionedCall/functional_1/block_3_project_1/convolution/merged_input", "StatefulPartitionedCall/functional_1/block_3_project_BN_1/batchnorm/sub"], "device": "/device:CPU:0", "attr": {"dilations": {"list": {"i": ["1", "1", "1", "1"]}}, "leakyrelu_alpha": {"f": 0.2}, "use_cudnn_on_gpu": {"b": true}, "num_args": {"i": "1"}, "num_host_args": {"i": "0"}, "TArgs": {"list": {"type": ["DT_FLOAT"]}}, "fused_ops": {"list": {"s": ["Qmlhc0FkZA=="]}}, "data_format": {"s": "TkhXQw=="}, "T": {"type": "DT_FLOAT"}, "explicit_paddings": {"list": {}}, "epsilon": {"f": 0.0}, "padding": {"s": "U0FNRQ=="}, "filter_format": {"s": "SFdJTw=="}, "strides": {"list": {"i": ["1", "1", "1", "1"]}}}}, {"name": "StatefulPartitionedCall/functional_1/block_4_expand_relu_1/Relu6", "op": "_FusedConv2D", "input": ["StatefulPartitionedCall/functional_1/block_3_project_BN_1/batchnorm/add_1", "StatefulPartitionedCall/functional_1/block_4_expand_1/convolution/merged_input", "StatefulPartitionedCall/functional_1/block_4_expand_BN_1/batchnorm/sub"], "device": "/device:CPU:0", "attr": {"use_cudnn_on_gpu": {"b": true}, "fused_ops": {"list": {"s": ["Qmlhc0FkZA==", "UmVsdTY="]}}, "data_format": {"s": "TkhXQw=="}, "strides": {"list": {"i": ["1", "1", "1", "1"]}}, "num_host_args": {"i": "0"}, "T": {"type": "DT_FLOAT"}, "dilations": {"list": {"i": ["1", "1", "1", "1"]}}, "filter_format": {"s": "SFdJTw=="}, "explicit_paddings": {"list": {}}, "leakyrelu_alpha": {"f": 0.2}, "epsilon": {"f": 0.0}, "padding": {"s": "U0FNRQ=="}, "num_args": {"i": "1"}, "TArgs": {"list": {"type": ["DT_FLOAT"]}}}}, {"name": "StatefulPartitionedCall/functional_1/block_4_depthwise_1/depthwise", "op": "DepthwiseConv2dNative", "input": ["StatefulPartitionedCall/functional_1/block_4_expand_relu_1/Relu6", "StatefulPartitionedCall/functional_1/block_4_depthwise_1/depthwise/ReadVariableOp"], "attr": {"data_format": {"s": "TkhXQw=="}, "T": {"type": "DT_FLOAT"}, "strides": {"list": {"i": ["1", "1", "1", "1"]}}, "padding": {"s": "U0FNRQ=="}, "explicit_paddings": {"list": {}}, "dilations": {"list": {"i": ["1", "1", "1", "1"]}}}}, {"name": "StatefulPartitionedCall/functional_1/block_4_depthwise_BN_1/batchnorm/mul_1", "op": "Mul", "input": ["StatefulPartitionedCall/functional_1/block_4_depthwise_1/depthwise", "StatefulPartitionedCall/functional_1/block_4_depthwise_BN_1/batchnorm/mul"], "attr": {"T": {"type": "DT_FLOAT"}}}, {"name": "StatefulPartitionedCall/functional_1/block_4_depthwise_BN_1/batchnorm/add_1", "op": "AddV2", "input": ["StatefulPartitionedCall/functional_1/block_4_depthwise_BN_1/batchnorm/mul_1", "StatefulPartitionedCall/functional_1/block_4_depthwise_BN_1/batchnorm/sub"], "attr": {"T": {"type": "DT_FLOAT"}}}, {"name": "StatefulPartitionedCall/functional_1/block_4_depthwise_relu_1/Relu6", "op": "Relu6", "input": ["StatefulPartitionedCall/functional_1/block_4_depthwise_BN_1/batchnorm/add_1"], "attr": {"T": {"type": "DT_FLOAT"}}}, {"name": "StatefulPartitionedCall/functional_1/block_4_project_BN_1/batchnorm/mul_1", "op": "Conv2D", "input": ["StatefulPartitionedCall/functional_1/block_4_depthwise_relu_1/Relu6", "StatefulPartitionedCall/functional_1/block_4_project_1/convolution/merged_input"], "device": "/device:CPU:0", "attr": {"data_format": {"s": "TkhXQw=="}, "explicit_paddings": {"list": {}}, "strides": {"list": {"i": ["1", "1", "1", "1"]}}, "use_cudnn_on_gpu": {"b": true}, "padding": {"s": "U0FNRQ=="}, "dilations": {"list": {"i": ["1", "1", "1", "1"]}}, "T": {"type": "DT_FLOAT"}}}, {"name": "StatefulPartitionedCall/functional_1/block_4_add_1/ArithmeticOptimizer/AddOpsRewrite_Leaf_1_Add", "op": "AddN", "input": ["StatefulPartitionedCall/functional_1/block_3_project_BN_1/batchnorm/add_1", "StatefulPartitionedCall/functional_1/block_4_project_BN_1/batchnorm/mul_1"], "attr": {"N": {"i": "2"}, "T": {"type": "DT_FLOAT"}, "_grappler_ArithmeticOptimizer_AddOpsRewriteStage": {"b": true}}}, {"name": "StatefulPartitionedCall/functional_1/block_4_add_1/ArithmeticOptimizer/AddOpsRewrite_Add", "op": "AddV2", "input": ["StatefulPartitionedCall/functional_1/block_4_project_BN_1/batchnorm/sub", "StatefulPartitionedCall/functional_1/block_4_add_1/ArithmeticOptimizer/AddOpsRewrite_Leaf_1_Add"], "attr": {"_grappler_ArithmeticOptimizer_AddOpsRewriteStage": {"b": true}, "T": {"type": "DT_FLOAT"}}}, {"name": "StatefulPartitionedCall/functional_1/block_5_expand_relu_1/Relu6", "op": "_FusedConv2D", "input": ["StatefulPartitionedCall/functional_1/block_4_add_1/ArithmeticOptimizer/AddOpsRewrite_Add", "StatefulPartitionedCall/functional_1/block_5_expand_1/convolution/merged_input", "StatefulPartitionedCall/functional_1/block_5_expand_BN_1/batchnorm/sub"], "device": "/device:CPU:0", "attr": {"dilations": {"list": {"i": ["1", "1", "1", "1"]}}, "leakyrelu_alpha": {"f": 0.2}, "padding": {"s": "U0FNRQ=="}, "fused_ops": {"list": {"s": ["Qmlhc0FkZA==", "UmVsdTY="]}}, "num_args": {"i": "1"}, "use_cudnn_on_gpu": {"b": true}, "TArgs": {"list": {"type": ["DT_FLOAT"]}}, "data_format": {"s": "TkhXQw=="}, "T": {"type": "DT_FLOAT"}, "explicit_paddings": {"list": {}}, "filter_format": {"s": "SFdJTw=="}, "strides": {"list": {"i": ["1", "1", "1", "1"]}}, "epsilon": {"f": 0.0}, "num_host_args": {"i": "0"}}}, {"name": "StatefulPartitionedCall/functional_1/block_5_depthwise_1/depthwise", "op": "DepthwiseConv2dNative", "input": ["StatefulPartitionedCall/functional_1/block_5_expand_relu_1/Relu6", "StatefulPartitionedCall/functional_1/block_5_depthwise_1/depthwise/ReadVariableOp"], "attr": {"explicit_paddings": {"list": {}}, "data_format": {"s": "TkhXQw=="}, "T": {"type": "DT_FLOAT"}, "strides": {"list": {"i": ["1", "1", "1", "1"]}}, "dilations": {"list": {"i": ["1", "1", "1", "1"]}}, "padding": {"s": "U0FNRQ=="}}}, {"name": "StatefulPartitionedCall/functional_1/block_5_depthwise_BN_1/batchnorm/mul_1", "op": "Mul", "input": ["StatefulPartitionedCall/functional_1/block_5_depthwise_1/depthwise", "StatefulPartitionedCall/functional_1/block_5_depthwise_BN_1/batchnorm/mul"], "attr": {"T": {"type": "DT_FLOAT"}}}, {"name": "StatefulPartitionedCall/functional_1/block_5_depthwise_BN_1/batchnorm/add_1", "op": "AddV2", "input": ["StatefulPartitionedCall/functional_1/block_5_depthwise_BN_1/batchnorm/mul_1", "StatefulPartitionedCall/functional_1/block_5_depthwise_BN_1/batchnorm/sub"], "attr": {"T": {"type": "DT_FLOAT"}}}, {"name": "StatefulPartitionedCall/functional_1/block_5_depthwise_relu_1/Relu6", "op": "Relu6", "input": ["StatefulPartitionedCall/functional_1/block_5_depthwise_BN_1/batchnorm/add_1"], "attr": {"T": {"type": "DT_FLOAT"}}}, {"name": "StatefulPartitionedCall/functional_1/block_5_project_BN_1/batchnorm/mul_1", "op": "Conv2D", "input": ["StatefulPartitionedCall/functional_1/block_5_depthwise_relu_1/Relu6", "StatefulPartitionedCall/functional_1/block_5_project_1/convolution/merged_input"], "device": "/device:CPU:0", "attr": {"use_cudnn_on_gpu": {"b": true}, "padding": {"s": "U0FNRQ=="}, "explicit_paddings": {"list": {}}, "strides": {"list": {"i": ["1", "1", "1", "1"]}}, "data_format": {"s": "TkhXQw=="}, "T": {"type": "DT_FLOAT"}, "dilations": {"list": {"i": ["1", "1", "1", "1"]}}}}, {"name": "StatefulPartitionedCall/functional_1/block_5_add_1/ArithmeticOptimizer/AddOpsRewrite_Leaf_1_Add", "op": "AddN", "input": ["StatefulPartitionedCall/functional_1/block_4_add_1/ArithmeticOptimizer/AddOpsRewrite_Add", "StatefulPartitionedCall/functional_1/block_5_project_BN_1/batchnorm/mul_1"], "attr": {"T": {"type": "DT_FLOAT"}, "N": {"i": "2"}, "_grappler_ArithmeticOptimizer_AddOpsRewriteStage": {"b": true}}}, {"name": "StatefulPartitionedCall/functional_1/block_5_add_1/ArithmeticOptimizer/AddOpsRewrite_Add", "op": "AddV2", "input": ["StatefulPartitionedCall/functional_1/block_5_project_BN_1/batchnorm/sub", "StatefulPartitionedCall/functional_1/block_5_add_1/ArithmeticOptimizer/AddOpsRewrite_Leaf_1_Add"], "attr": {"T": {"type": "DT_FLOAT"}, "_grappler_ArithmeticOptimizer_AddOpsRewriteStage": {"b": true}}}, {"name": "StatefulPartitionedCall/functional_1/block_6_expand_relu_1/Relu6", "op": "_FusedConv2D", "input": ["StatefulPartitionedCall/functional_1/block_5_add_1/ArithmeticOptimizer/AddOpsRewrite_Add", "StatefulPartitionedCall/functional_1/block_6_expand_1/convolution/merged_input", "StatefulPartitionedCall/functional_1/block_6_expand_BN_1/batchnorm/sub"], "device": "/device:CPU:0", "attr": {"explicit_paddings": {"list": {}}, "fused_ops": {"list": {"s": ["Qmlhc0FkZA==", "UmVsdTY="]}}, "use_cudnn_on_gpu": {"b": true}, "filter_format": {"s": "SFdJTw=="}, "data_format": {"s": "TkhXQw=="}, "dilations": {"list": {"i": ["1", "1", "1", "1"]}}, "T": {"type": "DT_FLOAT"}, "leakyrelu_alpha": {"f": 0.2}, "num_host_args": {"i": "0"}, "num_args": {"i": "1"}, "TArgs": {"list": {"type": ["DT_FLOAT"]}}, "padding": {"s": "U0FNRQ=="}, "strides": {"list": {"i": ["1", "1", "1", "1"]}}, "epsilon": {"f": 0.0}}}, {"name": "StatefulPartitionedCall/functional_1/block_6_pad_1/Pad", "op": "Pad", "input": ["StatefulPartitionedCall/functional_1/block_6_expand_relu_1/Relu6", "StatefulPartitionedCall/functional_1/block_6_pad_1/Const"], "attr": {"T": {"type": "DT_FLOAT"}, "Tpaddings": {"type": "DT_INT32"}}}, {"name": "StatefulPartitionedCall/functional_1/block_6_depthwise_1/depthwise", "op": "DepthwiseConv2dNative", "input": ["StatefulPartitionedCall/functional_1/block_6_pad_1/Pad", "StatefulPartitionedCall/functional_1/block_6_depthwise_1/depthwise/ReadVariableOp"], "attr": {"padding": {"s": "VkFMSUQ="}, "dilations": {"list": {"i": ["1", "1", "1", "1"]}}, "explicit_paddings": {"list": {}}, "strides": {"list": {"i": ["1", "2", "2", "1"]}}, "T": {"type": "DT_FLOAT"}, "data_format": {"s": "TkhXQw=="}}}, {"name": "StatefulPartitionedCall/functional_1/block_6_depthwise_BN_1/batchnorm/mul_1", "op": "Mul", "input": ["StatefulPartitionedCall/functional_1/block_6_depthwise_1/depthwise", "StatefulPartitionedCall/functional_1/block_6_depthwise_BN_1/batchnorm/mul"], "attr": {"T": {"type": "DT_FLOAT"}}}, {"name": "StatefulPartitionedCall/functional_1/block_6_depthwise_BN_1/batchnorm/add_1", "op": "AddV2", "input": ["StatefulPartitionedCall/functional_1/block_6_depthwise_BN_1/batchnorm/mul_1", "StatefulPartitionedCall/functional_1/block_6_depthwise_BN_1/batchnorm/sub"], "attr": {"T": {"type": "DT_FLOAT"}}}, {"name": "StatefulPartitionedCall/functional_1/block_6_depthwise_relu_1/Relu6", "op": "Relu6", "input": ["StatefulPartitionedCall/functional_1/block_6_depthwise_BN_1/batchnorm/add_1"], "attr": {"T": {"type": "DT_FLOAT"}}}, {"name": "StatefulPartitionedCall/functional_1/block_6_project_BN_1/batchnorm/add_1", "op": "_FusedConv2D", "input": ["StatefulPartitionedCall/functional_1/block_6_depthwise_relu_1/Relu6", "StatefulPartitionedCall/functional_1/block_6_project_1/convolution/merged_input", "StatefulPartitionedCall/functional_1/block_6_project_BN_1/batchnorm/sub"], "device": "/device:CPU:0", "attr": {"TArgs": {"list": {"type": ["DT_FLOAT"]}}, "filter_format": {"s": "SFdJTw=="}, "data_format": {"s": "TkhXQw=="}, "use_cudnn_on_gpu": {"b": true}, "num_host_args": {"i": "0"}, "leakyrelu_alpha": {"f": 0.2}, "explicit_paddings": {"list": {}}, "padding": {"s": "U0FNRQ=="}, "num_args": {"i": "1"}, "epsilon": {"f": 0.0}, "strides": {"list": {"i": ["1", "1", "1", "1"]}}, "T": {"type": "DT_FLOAT"}, "dilations": {"list": {"i": ["1", "1", "1", "1"]}}, "fused_ops": {"list": {"s": ["Qmlhc0FkZA=="]}}}}, {"name": "StatefulPartitionedCall/functional_1/block_7_expand_relu_1/Relu6", "op": "_FusedConv2D", "input": ["StatefulPartitionedCall/functional_1/block_6_project_BN_1/batchnorm/add_1", "StatefulPartitionedCall/functional_1/block_7_expand_1/convolution/merged_input", "StatefulPartitionedCall/functional_1/block_7_expand_BN_1/batchnorm/sub"], "device": "/device:CPU:0", "attr": {"epsilon": {"f": 0.0}, "dilations": {"list": {"i": ["1", "1", "1", "1"]}}, "TArgs": {"list": {"type": ["DT_FLOAT"]}}, "data_format": {"s": "TkhXQw=="}, "num_host_args": {"i": "0"}, "num_args": {"i": "1"}, "explicit_paddings": {"list": {}}, "fused_ops": {"list": {"s": ["Qmlhc0FkZA==", "UmVsdTY="]}}, "T": {"type": "DT_FLOAT"}, "strides": {"list": {"i": ["1", "1", "1", "1"]}}, "padding": {"s": "U0FNRQ=="}, "use_cudnn_on_gpu": {"b": true}, "filter_format": {"s": "SFdJTw=="}, "leakyrelu_alpha": {"f": 0.2}}}, {"name": "StatefulPartitionedCall/functional_1/block_7_depthwise_1/depthwise", "op": "DepthwiseConv2dNative", "input": ["StatefulPartitionedCall/functional_1/block_7_expand_relu_1/Relu6", "StatefulPartitionedCall/functional_1/block_7_depthwise_1/depthwise/ReadVariableOp"], "attr": {"data_format": {"s": "TkhXQw=="}, "dilations": {"list": {"i": ["1", "1", "1", "1"]}}, "padding": {"s": "U0FNRQ=="}, "strides": {"list": {"i": ["1", "1", "1", "1"]}}, "T": {"type": "DT_FLOAT"}, "explicit_paddings": {"list": {}}}}, {"name": "StatefulPartitionedCall/functional_1/block_7_depthwise_BN_1/batchnorm/mul_1", "op": "Mul", "input": ["StatefulPartitionedCall/functional_1/block_7_depthwise_1/depthwise", "StatefulPartitionedCall/functional_1/block_7_depthwise_BN_1/batchnorm/mul"], "attr": {"T": {"type": "DT_FLOAT"}}}, {"name": "StatefulPartitionedCall/functional_1/block_7_depthwise_BN_1/batchnorm/add_1", "op": "AddV2", "input": ["StatefulPartitionedCall/functional_1/block_7_depthwise_BN_1/batchnorm/mul_1", "StatefulPartitionedCall/functional_1/block_7_depthwise_BN_1/batchnorm/sub"], "attr": {"T": {"type": "DT_FLOAT"}}}, {"name": "StatefulPartitionedCall/functional_1/block_7_depthwise_relu_1/Relu6", "op": "Relu6", "input": ["StatefulPartitionedCall/functional_1/block_7_depthwise_BN_1/batchnorm/add_1"], "attr": {"T": {"type": "DT_FLOAT"}}}, {"name": "StatefulPartitionedCall/functional_1/block_7_project_BN_1/batchnorm/mul_1", "op": "Conv2D", "input": ["StatefulPartitionedCall/functional_1/block_7_depthwise_relu_1/Relu6", "StatefulPartitionedCall/functional_1/block_7_project_1/convolution/merged_input"], "device": "/device:CPU:0", "attr": {"T": {"type": "DT_FLOAT"}, "data_format": {"s": "TkhXQw=="}, "dilations": {"list": {"i": ["1", "1", "1", "1"]}}, "strides": {"list": {"i": ["1", "1", "1", "1"]}}, "explicit_paddings": {"list": {}}, "padding": {"s": "U0FNRQ=="}, "use_cudnn_on_gpu": {"b": true}}}, {"name": "StatefulPartitionedCall/functional_1/block_7_add_1/ArithmeticOptimizer/AddOpsRewrite_Leaf_1_Add", "op": "AddN", "input": ["StatefulPartitionedCall/functional_1/block_6_project_BN_1/batchnorm/add_1", "StatefulPartitionedCall/functional_1/block_7_project_BN_1/batchnorm/mul_1"], "attr": {"_grappler_ArithmeticOptimizer_AddOpsRewriteStage": {"b": true}, "T": {"type": "DT_FLOAT"}, "N": {"i": "2"}}}, {"name": "StatefulPartitionedCall/functional_1/block_7_add_1/ArithmeticOptimizer/AddOpsRewrite_Add", "op": "AddV2", "input": ["StatefulPartitionedCall/functional_1/block_7_project_BN_1/batchnorm/sub", "StatefulPartitionedCall/functional_1/block_7_add_1/ArithmeticOptimizer/AddOpsRewrite_Leaf_1_Add"], "attr": {"_grappler_ArithmeticOptimizer_AddOpsRewriteStage": {"b": true}, "T": {"type": "DT_FLOAT"}}}, {"name": "StatefulPartitionedCall/functional_1/block_8_expand_relu_1/Relu6", "op": "_FusedConv2D", "input": ["StatefulPartitionedCall/functional_1/block_7_add_1/ArithmeticOptimizer/AddOpsRewrite_Add", "StatefulPartitionedCall/functional_1/block_8_expand_1/convolution/merged_input", "StatefulPartitionedCall/functional_1/block_8_expand_BN_1/batchnorm/sub"], "device": "/device:CPU:0", "attr": {"leakyrelu_alpha": {"f": 0.2}, "fused_ops": {"list": {"s": ["Qmlhc0FkZA==", "UmVsdTY="]}}, "T": {"type": "DT_FLOAT"}, "num_host_args": {"i": "0"}, "filter_format": {"s": "SFdJTw=="}, "epsilon": {"f": 0.0}, "data_format": {"s": "TkhXQw=="}, "dilations": {"list": {"i": ["1", "1", "1", "1"]}}, "padding": {"s": "U0FNRQ=="}, "num_args": {"i": "1"}, "use_cudnn_on_gpu": {"b": true}, "strides": {"list": {"i": ["1", "1", "1", "1"]}}, "explicit_paddings": {"list": {}}, "TArgs": {"list": {"type": ["DT_FLOAT"]}}}}, {"name": "StatefulPartitionedCall/functional_1/block_8_depthwise_1/depthwise", "op": "DepthwiseConv2dNative", "input": ["StatefulPartitionedCall/functional_1/block_8_expand_relu_1/Relu6", "StatefulPartitionedCall/functional_1/block_8_depthwise_1/depthwise/ReadVariableOp"], "attr": {"strides": {"list": {"i": ["1", "1", "1", "1"]}}, "dilations": {"list": {"i": ["1", "1", "1", "1"]}}, "explicit_paddings": {"list": {}}, "padding": {"s": "U0FNRQ=="}, "T": {"type": "DT_FLOAT"}, "data_format": {"s": "TkhXQw=="}}}, {"name": "StatefulPartitionedCall/functional_1/block_8_depthwise_BN_1/batchnorm/mul_1", "op": "Mul", "input": ["StatefulPartitionedCall/functional_1/block_8_depthwise_1/depthwise", "StatefulPartitionedCall/functional_1/block_8_depthwise_BN_1/batchnorm/mul"], "attr": {"T": {"type": "DT_FLOAT"}}}, {"name": "StatefulPartitionedCall/functional_1/block_8_depthwise_BN_1/batchnorm/add_1", "op": "AddV2", "input": ["StatefulPartitionedCall/functional_1/block_8_depthwise_BN_1/batchnorm/mul_1", "StatefulPartitionedCall/functional_1/block_8_depthwise_BN_1/batchnorm/sub"], "attr": {"T": {"type": "DT_FLOAT"}}}, {"name": "StatefulPartitionedCall/functional_1/block_8_depthwise_relu_1/Relu6", "op": "Relu6", "input": ["StatefulPartitionedCall/functional_1/block_8_depthwise_BN_1/batchnorm/add_1"], "attr": {"T": {"type": "DT_FLOAT"}}}, {"name": "StatefulPartitionedCall/functional_1/block_8_project_BN_1/batchnorm/mul_1", "op": "Conv2D", "input": ["StatefulPartitionedCall/functional_1/block_8_depthwise_relu_1/Relu6", "StatefulPartitionedCall/functional_1/block_8_project_1/convolution/merged_input"], "device": "/device:CPU:0", "attr": {"explicit_paddings": {"list": {}}, "dilations": {"list": {"i": ["1", "1", "1", "1"]}}, "T": {"type": "DT_FLOAT"}, "use_cudnn_on_gpu": {"b": true}, "strides": {"list": {"i": ["1", "1", "1", "1"]}}, "padding": {"s": "U0FNRQ=="}, "data_format": {"s": "TkhXQw=="}}}, {"name": "StatefulPartitionedCall/functional_1/block_8_add_1/ArithmeticOptimizer/AddOpsRewrite_Leaf_1_Add", "op": "AddN", "input": ["StatefulPartitionedCall/functional_1/block_7_add_1/ArithmeticOptimizer/AddOpsRewrite_Add", "StatefulPartitionedCall/functional_1/block_8_project_BN_1/batchnorm/mul_1"], "attr": {"T": {"type": "DT_FLOAT"}, "N": {"i": "2"}, "_grappler_ArithmeticOptimizer_AddOpsRewriteStage": {"b": true}}}, {"name": "StatefulPartitionedCall/functional_1/block_8_add_1/ArithmeticOptimizer/AddOpsRewrite_Add", "op": "AddV2", "input": ["StatefulPartitionedCall/functional_1/block_8_project_BN_1/batchnorm/sub", "StatefulPartitionedCall/functional_1/block_8_add_1/ArithmeticOptimizer/AddOpsRewrite_Leaf_1_Add"], "attr": {"_grappler_ArithmeticOptimizer_AddOpsRewriteStage": {"b": true}, "T": {"type": "DT_FLOAT"}}}, {"name": "StatefulPartitionedCall/functional_1/block_9_expand_relu_1/Relu6", "op": "_FusedConv2D", "input": ["StatefulPartitionedCall/functional_1/block_8_add_1/ArithmeticOptimizer/AddOpsRewrite_Add", "StatefulPartitionedCall/functional_1/block_9_expand_1/convolution/merged_input", "StatefulPartitionedCall/functional_1/block_9_expand_BN_1/batchnorm/sub"], "device": "/device:CPU:0", "attr": {"num_host_args": {"i": "0"}, "fused_ops": {"list": {"s": ["Qmlhc0FkZA==", "UmVsdTY="]}}, "leakyrelu_alpha": {"f": 0.2}, "filter_format": {"s": "SFdJTw=="}, "epsilon": {"f": 0.0}, "strides": {"list": {"i": ["1", "1", "1", "1"]}}, "TArgs": {"list": {"type": ["DT_FLOAT"]}}, "T": {"type": "DT_FLOAT"}, "padding": {"s": "U0FNRQ=="}, "dilations": {"list": {"i": ["1", "1", "1", "1"]}}, "use_cudnn_on_gpu": {"b": true}, "explicit_paddings": {"list": {}}, "num_args": {"i": "1"}, "data_format": {"s": "TkhXQw=="}}}, {"name": "StatefulPartitionedCall/functional_1/block_9_depthwise_1/depthwise", "op": "DepthwiseConv2dNative", "input": ["StatefulPartitionedCall/functional_1/block_9_expand_relu_1/Relu6", "StatefulPartitionedCall/functional_1/block_9_depthwise_1/depthwise/ReadVariableOp"], "attr": {"strides": {"list": {"i": ["1", "1", "1", "1"]}}, "padding": {"s": "U0FNRQ=="}, "explicit_paddings": {"list": {}}, "T": {"type": "DT_FLOAT"}, "dilations": {"list": {"i": ["1", "1", "1", "1"]}}, "data_format": {"s": "TkhXQw=="}}}, {"name": "StatefulPartitionedCall/functional_1/block_9_depthwise_BN_1/batchnorm/mul_1", "op": "Mul", "input": ["StatefulPartitionedCall/functional_1/block_9_depthwise_1/depthwise", "StatefulPartitionedCall/functional_1/block_9_depthwise_BN_1/batchnorm/mul"], "attr": {"T": {"type": "DT_FLOAT"}}}, {"name": "StatefulPartitionedCall/functional_1/block_9_depthwise_BN_1/batchnorm/add_1", "op": "AddV2", "input": ["StatefulPartitionedCall/functional_1/block_9_depthwise_BN_1/batchnorm/mul_1", "StatefulPartitionedCall/functional_1/block_9_depthwise_BN_1/batchnorm/sub"], "attr": {"T": {"type": "DT_FLOAT"}}}, {"name": "StatefulPartitionedCall/functional_1/block_9_depthwise_relu_1/Relu6", "op": "Relu6", "input": ["StatefulPartitionedCall/functional_1/block_9_depthwise_BN_1/batchnorm/add_1"], "attr": {"T": {"type": "DT_FLOAT"}}}, {"name": "StatefulPartitionedCall/functional_1/block_9_project_BN_1/batchnorm/mul_1", "op": "Conv2D", "input": ["StatefulPartitionedCall/functional_1/block_9_depthwise_relu_1/Relu6", "StatefulPartitionedCall/functional_1/block_9_project_1/convolution/merged_input"], "device": "/device:CPU:0", "attr": {"T": {"type": "DT_FLOAT"}, "strides": {"list": {"i": ["1", "1", "1", "1"]}}, "explicit_paddings": {"list": {}}, "dilations": {"list": {"i": ["1", "1", "1", "1"]}}, "padding": {"s": "U0FNRQ=="}, "use_cudnn_on_gpu": {"b": true}, "data_format": {"s": "TkhXQw=="}}}, {"name": "StatefulPartitionedCall/functional_1/block_9_add_1/ArithmeticOptimizer/AddOpsRewrite_Leaf_1_Add", "op": "AddN", "input": ["StatefulPartitionedCall/functional_1/block_8_add_1/ArithmeticOptimizer/AddOpsRewrite_Add", "StatefulPartitionedCall/functional_1/block_9_project_BN_1/batchnorm/mul_1"], "attr": {"T": {"type": "DT_FLOAT"}, "_grappler_ArithmeticOptimizer_AddOpsRewriteStage": {"b": true}, "N": {"i": "2"}}}, {"name": "StatefulPartitionedCall/functional_1/block_9_add_1/ArithmeticOptimizer/AddOpsRewrite_Add", "op": "AddV2", "input": ["StatefulPartitionedCall/functional_1/block_9_project_BN_1/batchnorm/sub", "StatefulPartitionedCall/functional_1/block_9_add_1/ArithmeticOptimizer/AddOpsRewrite_Leaf_1_Add"], "attr": {"_grappler_ArithmeticOptimizer_AddOpsRewriteStage": {"b": true}, "T": {"type": "DT_FLOAT"}}}, {"name": "StatefulPartitionedCall/functional_1/block_10_expand_relu_1/Relu6", "op": "_FusedConv2D", "input": ["StatefulPartitionedCall/functional_1/block_9_add_1/ArithmeticOptimizer/AddOpsRewrite_Add", "StatefulPartitionedCall/functional_1/block_10_expand_1/convolution/merged_input", "StatefulPartitionedCall/functional_1/block_10_expand_BN_1/batchnorm/sub"], "device": "/device:CPU:0", "attr": {"epsilon": {"f": 0.0}, "num_args": {"i": "1"}, "data_format": {"s": "TkhXQw=="}, "strides": {"list": {"i": ["1", "1", "1", "1"]}}, "use_cudnn_on_gpu": {"b": true}, "T": {"type": "DT_FLOAT"}, "num_host_args": {"i": "0"}, "padding": {"s": "U0FNRQ=="}, "fused_ops": {"list": {"s": ["Qmlhc0FkZA==", "UmVsdTY="]}}, "explicit_paddings": {"list": {}}, "dilations": {"list": {"i": ["1", "1", "1", "1"]}}, "leakyrelu_alpha": {"f": 0.2}, "filter_format": {"s": "SFdJTw=="}, "TArgs": {"list": {"type": ["DT_FLOAT"]}}}}, {"name": "StatefulPartitionedCall/functional_1/block_10_depthwise_1/depthwise", "op": "DepthwiseConv2dNative", "input": ["StatefulPartitionedCall/functional_1/block_10_expand_relu_1/Relu6", "StatefulPartitionedCall/functional_1/block_10_depthwise_1/depthwise/ReadVariableOp"], "attr": {"padding": {"s": "U0FNRQ=="}, "explicit_paddings": {"list": {}}, "data_format": {"s": "TkhXQw=="}, "dilations": {"list": {"i": ["1", "1", "1", "1"]}}, "strides": {"list": {"i": ["1", "1", "1", "1"]}}, "T": {"type": "DT_FLOAT"}}}, {"name": "StatefulPartitionedCall/functional_1/block_10_depthwise_BN_1/batchnorm/mul_1", "op": "Mul", "input": ["StatefulPartitionedCall/functional_1/block_10_depthwise_1/depthwise", "StatefulPartitionedCall/functional_1/block_10_depthwise_BN_1/batchnorm/mul"], "attr": {"T": {"type": "DT_FLOAT"}}}, {"name": "StatefulPartitionedCall/functional_1/block_10_depthwise_BN_1/batchnorm/add_1", "op": "AddV2", "input": ["StatefulPartitionedCall/functional_1/block_10_depthwise_BN_1/batchnorm/mul_1", "StatefulPartitionedCall/functional_1/block_10_depthwise_BN_1/batchnorm/sub"], "attr": {"T": {"type": "DT_FLOAT"}}}, {"name": "StatefulPartitionedCall/functional_1/block_10_depthwise_relu_1/Relu6", "op": "Relu6", "input": ["StatefulPartitionedCall/functional_1/block_10_depthwise_BN_1/batchnorm/add_1"], "attr": {"T": {"type": "DT_FLOAT"}}}, {"name": "StatefulPartitionedCall/functional_1/block_10_project_BN_1/batchnorm/add_1", "op": "_FusedConv2D", "input": ["StatefulPartitionedCall/functional_1/block_10_depthwise_relu_1/Relu6", "StatefulPartitionedCall/functional_1/block_10_project_1/convolution/merged_input", "StatefulPartitionedCall/functional_1/block_10_project_BN_1/batchnorm/sub"], "device": "/device:CPU:0", "attr": {"padding": {"s": "U0FNRQ=="}, "T": {"type": "DT_FLOAT"}, "TArgs": {"list": {"type": ["DT_FLOAT"]}}, "leakyrelu_alpha": {"f": 0.2}, "filter_format": {"s": "SFdJTw=="}, "strides": {"list": {"i": ["1", "1", "1", "1"]}}, "data_format": {"s": "TkhXQw=="}, "use_cudnn_on_gpu": {"b": true}, "epsilon": {"f": 0.0}, "num_host_args": {"i": "0"}, "fused_ops": {"list": {"s": ["Qmlhc0FkZA=="]}}, "explicit_paddings": {"list": {}}, "dilations": {"list": {"i": ["1", "1", "1", "1"]}}, "num_args": {"i": "1"}}}, {"name": "StatefulPartitionedCall/functional_1/block_11_expand_relu_1/Relu6", "op": "_FusedConv2D", "input": ["StatefulPartitionedCall/functional_1/block_10_project_BN_1/batchnorm/add_1", "StatefulPartitionedCall/functional_1/block_11_expand_1/convolution/merged_input", "StatefulPartitionedCall/functional_1/block_11_expand_BN_1/batchnorm/sub"], "device": "/device:CPU:0", "attr": {"dilations": {"list": {"i": ["1", "1", "1", "1"]}}, "filter_format": {"s": "SFdJTw=="}, "leakyrelu_alpha": {"f": 0.2}, "T": {"type": "DT_FLOAT"}, "fused_ops": {"list": {"s": ["Qmlhc0FkZA==", "UmVsdTY="]}}, "num_args": {"i": "1"}, "strides": {"list": {"i": ["1", "1", "1", "1"]}}, "epsilon": {"f": 0.0}, "use_cudnn_on_gpu": {"b": true}, "data_format": {"s": "TkhXQw=="}, "padding": {"s": "U0FNRQ=="}, "explicit_paddings": {"list": {}}, "TArgs": {"list": {"type": ["DT_FLOAT"]}}, "num_host_args": {"i": "0"}}}, {"name": "StatefulPartitionedCall/functional_1/block_11_depthwise_1/depthwise", "op": "DepthwiseConv2dNative", "input": ["StatefulPartitionedCall/functional_1/block_11_expand_relu_1/Relu6", "StatefulPartitionedCall/functional_1/block_11_depthwise_1/depthwise/ReadVariableOp"], "attr": {"padding": {"s": "U0FNRQ=="}, "dilations": {"list": {"i": ["1", "1", "1", "1"]}}, "T": {"type": "DT_FLOAT"}, "strides": {"list": {"i": ["1", "1", "1", "1"]}}, "data_format": {"s": "TkhXQw=="}, "explicit_paddings": {"list": {}}}}, {"name": "StatefulPartitionedCall/functional_1/block_11_depthwise_BN_1/batchnorm/mul_1", "op": "Mul", "input": ["StatefulPartitionedCall/functional_1/block_11_depthwise_1/depthwise", "StatefulPartitionedCall/functional_1/block_11_depthwise_BN_1/batchnorm/mul"], "attr": {"T": {"type": "DT_FLOAT"}}}, {"name": "StatefulPartitionedCall/functional_1/block_11_depthwise_BN_1/batchnorm/add_1", "op": "AddV2", "input": ["StatefulPartitionedCall/functional_1/block_11_depthwise_BN_1/batchnorm/mul_1", "StatefulPartitionedCall/functional_1/block_11_depthwise_BN_1/batchnorm/sub"], "attr": {"T": {"type": "DT_FLOAT"}}}, {"name": "StatefulPartitionedCall/functional_1/block_11_depthwise_relu_1/Relu6", "op": "Relu6", "input": ["StatefulPartitionedCall/functional_1/block_11_depthwise_BN_1/batchnorm/add_1"], "attr": {"T": {"type": "DT_FLOAT"}}}, {"name": "StatefulPartitionedCall/functional_1/block_11_project_BN_1/batchnorm/mul_1", "op": "Conv2D", "input": ["StatefulPartitionedCall/functional_1/block_11_depthwise_relu_1/Relu6", "StatefulPartitionedCall/functional_1/block_11_project_1/convolution/merged_input"], "device": "/device:CPU:0", "attr": {"strides": {"list": {"i": ["1", "1", "1", "1"]}}, "dilations": {"list": {"i": ["1", "1", "1", "1"]}}, "padding": {"s": "U0FNRQ=="}, "use_cudnn_on_gpu": {"b": true}, "explicit_paddings": {"list": {}}, "T": {"type": "DT_FLOAT"}, "data_format": {"s": "TkhXQw=="}}}, {"name": "StatefulPartitionedCall/functional_1/block_11_add_1/ArithmeticOptimizer/AddOpsRewrite_Leaf_1_Add", "op": "AddN", "input": ["StatefulPartitionedCall/functional_1/block_10_project_BN_1/batchnorm/add_1", "StatefulPartitionedCall/functional_1/block_11_project_BN_1/batchnorm/mul_1"], "attr": {"_grappler_ArithmeticOptimizer_AddOpsRewriteStage": {"b": true}, "N": {"i": "2"}, "T": {"type": "DT_FLOAT"}}}, {"name": "StatefulPartitionedCall/functional_1/block_11_add_1/ArithmeticOptimizer/AddOpsRewrite_Add", "op": "AddV2", "input": ["StatefulPartitionedCall/functional_1/block_11_project_BN_1/batchnorm/sub", "StatefulPartitionedCall/functional_1/block_11_add_1/ArithmeticOptimizer/AddOpsRewrite_Leaf_1_Add"], "attr": {"T": {"type": "DT_FLOAT"}, "_grappler_ArithmeticOptimizer_AddOpsRewriteStage": {"b": true}}}, {"name": "StatefulPartitionedCall/functional_1/block_12_expand_relu_1/Relu6", "op": "_FusedConv2D", "input": ["StatefulPartitionedCall/functional_1/block_11_add_1/ArithmeticOptimizer/AddOpsRewrite_Add", "StatefulPartitionedCall/functional_1/block_12_expand_1/convolution/merged_input", "StatefulPartitionedCall/functional_1/block_12_expand_BN_1/batchnorm/sub"], "device": "/device:CPU:0", "attr": {"strides": {"list": {"i": ["1", "1", "1", "1"]}}, "leakyrelu_alpha": {"f": 0.2}, "explicit_paddings": {"list": {}}, "use_cudnn_on_gpu": {"b": true}, "fused_ops": {"list": {"s": ["Qmlhc0FkZA==", "UmVsdTY="]}}, "data_format": {"s": "TkhXQw=="}, "epsilon": {"f": 0.0}, "T": {"type": "DT_FLOAT"}, "num_host_args": {"i": "0"}, "dilations": {"list": {"i": ["1", "1", "1", "1"]}}, "num_args": {"i": "1"}, "padding": {"s": "U0FNRQ=="}, "filter_format": {"s": "SFdJTw=="}, "TArgs": {"list": {"type": ["DT_FLOAT"]}}}}, {"name": "StatefulPartitionedCall/functional_1/block_12_depthwise_1/depthwise", "op": "DepthwiseConv2dNative", "input": ["StatefulPartitionedCall/functional_1/block_12_expand_relu_1/Relu6", "StatefulPartitionedCall/functional_1/block_12_depthwise_1/depthwise/ReadVariableOp"], "attr": {"T": {"type": "DT_FLOAT"}, "explicit_paddings": {"list": {}}, "data_format": {"s": "TkhXQw=="}, "strides": {"list": {"i": ["1", "1", "1", "1"]}}, "padding": {"s": "U0FNRQ=="}, "dilations": {"list": {"i": ["1", "1", "1", "1"]}}}}, {"name": "StatefulPartitionedCall/functional_1/block_12_depthwise_BN_1/batchnorm/mul_1", "op": "Mul", "input": ["StatefulPartitionedCall/functional_1/block_12_depthwise_1/depthwise", "StatefulPartitionedCall/functional_1/block_12_depthwise_BN_1/batchnorm/mul"], "attr": {"T": {"type": "DT_FLOAT"}}}, {"name": "StatefulPartitionedCall/functional_1/block_12_depthwise_BN_1/batchnorm/add_1", "op": "AddV2", "input": ["StatefulPartitionedCall/functional_1/block_12_depthwise_BN_1/batchnorm/mul_1", "StatefulPartitionedCall/functional_1/block_12_depthwise_BN_1/batchnorm/sub"], "attr": {"T": {"type": "DT_FLOAT"}}}, {"name": "StatefulPartitionedCall/functional_1/block_12_depthwise_relu_1/Relu6", "op": "Relu6", "input": ["StatefulPartitionedCall/functional_1/block_12_depthwise_BN_1/batchnorm/add_1"], "attr": {"T": {"type": "DT_FLOAT"}}}, {"name": "StatefulPartitionedCall/functional_1/block_12_project_BN_1/batchnorm/mul_1", "op": "Conv2D", "input": ["StatefulPartitionedCall/functional_1/block_12_depthwise_relu_1/Relu6", "StatefulPartitionedCall/functional_1/block_12_project_1/convolution/merged_input"], "device": "/device:CPU:0", "attr": {"use_cudnn_on_gpu": {"b": true}, "explicit_paddings": {"list": {}}, "strides": {"list": {"i": ["1", "1", "1", "1"]}}, "T": {"type": "DT_FLOAT"}, "dilations": {"list": {"i": ["1", "1", "1", "1"]}}, "padding": {"s": "U0FNRQ=="}, "data_format": {"s": "TkhXQw=="}}}, {"name": "StatefulPartitionedCall/functional_1/block_12_add_1/ArithmeticOptimizer/AddOpsRewrite_Leaf_1_Add", "op": "AddN", "input": ["StatefulPartitionedCall/functional_1/block_11_add_1/ArithmeticOptimizer/AddOpsRewrite_Add", "StatefulPartitionedCall/functional_1/block_12_project_BN_1/batchnorm/mul_1"], "attr": {"T": {"type": "DT_FLOAT"}, "N": {"i": "2"}, "_grappler_ArithmeticOptimizer_AddOpsRewriteStage": {"b": true}}}, {"name": "StatefulPartitionedCall/functional_1/block_12_add_1/ArithmeticOptimizer/AddOpsRewrite_Add", "op": "AddV2", "input": ["StatefulPartitionedCall/functional_1/block_12_project_BN_1/batchnorm/sub", "StatefulPartitionedCall/functional_1/block_12_add_1/ArithmeticOptimizer/AddOpsRewrite_Leaf_1_Add"], "attr": {"T": {"type": "DT_FLOAT"}, "_grappler_ArithmeticOptimizer_AddOpsRewriteStage": {"b": true}}}, {"name": "StatefulPartitionedCall/functional_1/block_13_expand_relu_1/Relu6", "op": "_FusedConv2D", "input": ["StatefulPartitionedCall/functional_1/block_12_add_1/ArithmeticOptimizer/AddOpsRewrite_Add", "StatefulPartitionedCall/functional_1/block_13_expand_1/convolution/merged_input", "StatefulPartitionedCall/functional_1/block_13_expand_BN_1/batchnorm/sub"], "device": "/device:CPU:0", "attr": {"dilations": {"list": {"i": ["1", "1", "1", "1"]}}, "leakyrelu_alpha": {"f": 0.2}, "fused_ops": {"list": {"s": ["Qmlhc0FkZA==", "UmVsdTY="]}}, "explicit_paddings": {"list": {}}, "data_format": {"s": "TkhXQw=="}, "num_host_args": {"i": "0"}, "filter_format": {"s": "SFdJTw=="}, "strides": {"list": {"i": ["1", "1", "1", "1"]}}, "T": {"type": "DT_FLOAT"}, "num_args": {"i": "1"}, "use_cudnn_on_gpu": {"b": true}, "TArgs": {"list": {"type": ["DT_FLOAT"]}}, "epsilon": {"f": 0.0}, "padding": {"s": "U0FNRQ=="}}}, {"name": "StatefulPartitionedCall/functional_1/block_13_pad_1/Pad", "op": "Pad", "input": ["StatefulPartitionedCall/functional_1/block_13_expand_relu_1/Relu6", "StatefulPartitionedCall/functional_1/block_13_pad_1/Const"], "attr": {"T": {"type": "DT_FLOAT"}, "Tpaddings": {"type": "DT_INT32"}}}, {"name": "StatefulPartitionedCall/functional_1/block_13_depthwise_1/depthwise", "op": "DepthwiseConv2dNative", "input": ["StatefulPartitionedCall/functional_1/block_13_pad_1/Pad", "StatefulPartitionedCall/functional_1/block_13_depthwise_1/depthwise/ReadVariableOp"], "attr": {"padding": {"s": "VkFMSUQ="}, "T": {"type": "DT_FLOAT"}, "dilations": {"list": {"i": ["1", "1", "1", "1"]}}, "strides": {"list": {"i": ["1", "2", "2", "1"]}}, "explicit_paddings": {"list": {}}, "data_format": {"s": "TkhXQw=="}}}, {"name": "StatefulPartitionedCall/functional_1/block_13_depthwise_BN_1/batchnorm/mul_1", "op": "Mul", "input": ["StatefulPartitionedCall/functional_1/block_13_depthwise_1/depthwise", "StatefulPartitionedCall/functional_1/block_13_depthwise_BN_1/batchnorm/mul"], "attr": {"T": {"type": "DT_FLOAT"}}}, {"name": "StatefulPartitionedCall/functional_1/block_13_depthwise_BN_1/batchnorm/add_1", "op": "AddV2", "input": ["StatefulPartitionedCall/functional_1/block_13_depthwise_BN_1/batchnorm/mul_1", "StatefulPartitionedCall/functional_1/block_13_depthwise_BN_1/batchnorm/sub"], "attr": {"T": {"type": "DT_FLOAT"}}}, {"name": "StatefulPartitionedCall/functional_1/block_13_depthwise_relu_1/Relu6", "op": "Relu6", "input": ["StatefulPartitionedCall/functional_1/block_13_depthwise_BN_1/batchnorm/add_1"], "attr": {"T": {"type": "DT_FLOAT"}}}, {"name": "StatefulPartitionedCall/functional_1/block_13_project_BN_1/batchnorm/add_1", "op": "_FusedConv2D", "input": ["StatefulPartitionedCall/functional_1/block_13_depthwise_relu_1/Relu6", "StatefulPartitionedCall/functional_1/block_13_project_1/convolution/merged_input", "StatefulPartitionedCall/functional_1/block_13_project_BN_1/batchnorm/sub"], "device": "/device:CPU:0", "attr": {"explicit_paddings": {"list": {}}, "epsilon": {"f": 0.0}, "strides": {"list": {"i": ["1", "1", "1", "1"]}}, "T": {"type": "DT_FLOAT"}, "data_format": {"s": "TkhXQw=="}, "num_host_args": {"i": "0"}, "TArgs": {"list": {"type": ["DT_FLOAT"]}}, "num_args": {"i": "1"}, "fused_ops": {"list": {"s": ["Qmlhc0FkZA=="]}}, "filter_format": {"s": "SFdJTw=="}, "dilations": {"list": {"i": ["1", "1", "1", "1"]}}, "leakyrelu_alpha": {"f": 0.2}, "use_cudnn_on_gpu": {"b": true}, "padding": {"s": "U0FNRQ=="}}}, {"name": "StatefulPartitionedCall/functional_1/block_14_expand_relu_1/Relu6", "op": "_FusedConv2D", "input": ["StatefulPartitionedCall/functional_1/block_13_project_BN_1/batchnorm/add_1", "StatefulPartitionedCall/functional_1/block_14_expand_1/convolution/merged_input", "StatefulPartitionedCall/functional_1/block_14_expand_BN_1/batchnorm/sub"], "device": "/device:CPU:0", "attr": {"dilations": {"list": {"i": ["1", "1", "1", "1"]}}, "leakyrelu_alpha": {"f": 0.2}, "TArgs": {"list": {"type": ["DT_FLOAT"]}}, "fused_ops": {"list": {"s": ["Qmlhc0FkZA==", "UmVsdTY="]}}, "num_args": {"i": "1"}, "explicit_paddings": {"list": {}}, "strides": {"list": {"i": ["1", "1", "1", "1"]}}, "epsilon": {"f": 0.0}, "padding": {"s": "U0FNRQ=="}, "num_host_args": {"i": "0"}, "data_format": {"s": "TkhXQw=="}, "filter_format": {"s": "SFdJTw=="}, "T": {"type": "DT_FLOAT"}, "use_cudnn_on_gpu": {"b": true}}}, {"name": "StatefulPartitionedCall/functional_1/block_14_depthwise_1/depthwise", "op": "DepthwiseConv2dNative", "input": ["StatefulPartitionedCall/functional_1/block_14_expand_relu_1/Relu6", "StatefulPartitionedCall/functional_1/block_14_depthwise_1/depthwise/ReadVariableOp"], "attr": {"data_format": {"s": "TkhXQw=="}, "explicit_paddings": {"list": {}}, "padding": {"s": "U0FNRQ=="}, "dilations": {"list": {"i": ["1", "1", "1", "1"]}}, "T": {"type": "DT_FLOAT"}, "strides": {"list": {"i": ["1", "1", "1", "1"]}}}}, {"name": "StatefulPartitionedCall/functional_1/block_14_depthwise_BN_1/batchnorm/mul_1", "op": "Mul", "input": ["StatefulPartitionedCall/functional_1/block_14_depthwise_1/depthwise", "StatefulPartitionedCall/functional_1/block_14_depthwise_BN_1/batchnorm/mul"], "attr": {"T": {"type": "DT_FLOAT"}}}, {"name": "StatefulPartitionedCall/functional_1/block_14_depthwise_BN_1/batchnorm/add_1", "op": "AddV2", "input": ["StatefulPartitionedCall/functional_1/block_14_depthwise_BN_1/batchnorm/mul_1", "StatefulPartitionedCall/functional_1/block_14_depthwise_BN_1/batchnorm/sub"], "attr": {"T": {"type": "DT_FLOAT"}}}, {"name": "StatefulPartitionedCall/functional_1/block_14_depthwise_relu_1/Relu6", "op": "Relu6", "input": ["StatefulPartitionedCall/functional_1/block_14_depthwise_BN_1/batchnorm/add_1"], "attr": {"T": {"type": "DT_FLOAT"}}}, {"name": "StatefulPartitionedCall/functional_1/block_14_project_BN_1/batchnorm/mul_1", "op": "Conv2D", "input": ["StatefulPartitionedCall/functional_1/block_14_depthwise_relu_1/Relu6", "StatefulPartitionedCall/functional_1/block_14_project_1/convolution/merged_input"], "device": "/device:CPU:0", "attr": {"explicit_paddings": {"list": {}}, "T": {"type": "DT_FLOAT"}, "strides": {"list": {"i": ["1", "1", "1", "1"]}}, "data_format": {"s": "TkhXQw=="}, "dilations": {"list": {"i": ["1", "1", "1", "1"]}}, "padding": {"s": "U0FNRQ=="}, "use_cudnn_on_gpu": {"b": true}}}, {"name": "StatefulPartitionedCall/functional_1/block_14_add_1/ArithmeticOptimizer/AddOpsRewrite_Leaf_1_Add", "op": "AddN", "input": ["StatefulPartitionedCall/functional_1/block_13_project_BN_1/batchnorm/add_1", "StatefulPartitionedCall/functional_1/block_14_project_BN_1/batchnorm/mul_1"], "attr": {"_grappler_ArithmeticOptimizer_AddOpsRewriteStage": {"b": true}, "N": {"i": "2"}, "T": {"type": "DT_FLOAT"}}}, {"name": "StatefulPartitionedCall/functional_1/block_14_add_1/ArithmeticOptimizer/AddOpsRewrite_Add", "op": "AddV2", "input": ["StatefulPartitionedCall/functional_1/block_14_project_BN_1/batchnorm/sub", "StatefulPartitionedCall/functional_1/block_14_add_1/ArithmeticOptimizer/AddOpsRewrite_Leaf_1_Add"], "attr": {"_grappler_ArithmeticOptimizer_AddOpsRewriteStage": {"b": true}, "T": {"type": "DT_FLOAT"}}}, {"name": "StatefulPartitionedCall/functional_1/block_15_expand_relu_1/Relu6", "op": "_FusedConv2D", "input": ["StatefulPartitionedCall/functional_1/block_14_add_1/ArithmeticOptimizer/AddOpsRewrite_Add", "StatefulPartitionedCall/functional_1/block_15_expand_1/convolution/merged_input", "StatefulPartitionedCall/functional_1/block_15_expand_BN_1/batchnorm/sub"], "device": "/device:CPU:0", "attr": {"strides": {"list": {"i": ["1", "1", "1", "1"]}}, "num_args": {"i": "1"}, "data_format": {"s": "TkhXQw=="}, "num_host_args": {"i": "0"}, "leakyrelu_alpha": {"f": 0.2}, "epsilon": {"f": 0.0}, "filter_format": {"s": "SFdJTw=="}, "dilations": {"list": {"i": ["1", "1", "1", "1"]}}, "T": {"type": "DT_FLOAT"}, "fused_ops": {"list": {"s": ["Qmlhc0FkZA==", "UmVsdTY="]}}, "use_cudnn_on_gpu": {"b": true}, "TArgs": {"list": {"type": ["DT_FLOAT"]}}, "explicit_paddings": {"list": {}}, "padding": {"s": "U0FNRQ=="}}}, {"name": "StatefulPartitionedCall/functional_1/block_15_depthwise_1/depthwise", "op": "DepthwiseConv2dNative", "input": ["StatefulPartitionedCall/functional_1/block_15_expand_relu_1/Relu6", "StatefulPartitionedCall/functional_1/block_15_depthwise_1/depthwise/ReadVariableOp"], "attr": {"T": {"type": "DT_FLOAT"}, "strides": {"list": {"i": ["1", "1", "1", "1"]}}, "dilations": {"list": {"i": ["1", "1", "1", "1"]}}, "padding": {"s": "U0FNRQ=="}, "explicit_paddings": {"list": {}}, "data_format": {"s": "TkhXQw=="}}}, {"name": "StatefulPartitionedCall/functional_1/block_15_depthwise_BN_1/batchnorm/mul_1", "op": "Mul", "input": ["StatefulPartitionedCall/functional_1/block_15_depthwise_1/depthwise", "StatefulPartitionedCall/functional_1/block_15_depthwise_BN_1/batchnorm/mul"], "attr": {"T": {"type": "DT_FLOAT"}}}, {"name": "StatefulPartitionedCall/functional_1/block_15_depthwise_BN_1/batchnorm/add_1", "op": "AddV2", "input": ["StatefulPartitionedCall/functional_1/block_15_depthwise_BN_1/batchnorm/mul_1", "StatefulPartitionedCall/functional_1/block_15_depthwise_BN_1/batchnorm/sub"], "attr": {"T": {"type": "DT_FLOAT"}}}, {"name": "StatefulPartitionedCall/functional_1/block_15_depthwise_relu_1/Relu6", "op": "Relu6", "input": ["StatefulPartitionedCall/functional_1/block_15_depthwise_BN_1/batchnorm/add_1"], "attr": {"T": {"type": "DT_FLOAT"}}}, {"name": "StatefulPartitionedCall/functional_1/block_15_project_BN_1/batchnorm/mul_1", "op": "Conv2D", "input": ["StatefulPartitionedCall/functional_1/block_15_depthwise_relu_1/Relu6", "StatefulPartitionedCall/functional_1/block_15_project_1/convolution/merged_input"], "device": "/device:CPU:0", "attr": {"explicit_paddings": {"list": {}}, "use_cudnn_on_gpu": {"b": true}, "strides": {"list": {"i": ["1", "1", "1", "1"]}}, "T": {"type": "DT_FLOAT"}, "padding": {"s": "U0FNRQ=="}, "dilations": {"list": {"i": ["1", "1", "1", "1"]}}, "data_format": {"s": "TkhXQw=="}}}, {"name": "StatefulPartitionedCall/functional_1/block_15_add_1/ArithmeticOptimizer/AddOpsRewrite_Leaf_1_Add", "op": "AddN", "input": ["StatefulPartitionedCall/functional_1/block_14_add_1/ArithmeticOptimizer/AddOpsRewrite_Add", "StatefulPartitionedCall/functional_1/block_15_project_BN_1/batchnorm/mul_1"], "attr": {"N": {"i": "2"}, "_grappler_ArithmeticOptimizer_AddOpsRewriteStage": {"b": true}, "T": {"type": "DT_FLOAT"}}}, {"name": "StatefulPartitionedCall/functional_1/block_15_add_1/ArithmeticOptimizer/AddOpsRewrite_Add", "op": "AddV2", "input": ["StatefulPartitionedCall/functional_1/block_15_project_BN_1/batchnorm/sub", "StatefulPartitionedCall/functional_1/block_15_add_1/ArithmeticOptimizer/AddOpsRewrite_Leaf_1_Add"], "attr": {"T": {"type": "DT_FLOAT"}, "_grappler_ArithmeticOptimizer_AddOpsRewriteStage": {"b": true}}}, {"name": "StatefulPartitionedCall/functional_1/block_16_expand_relu_1/Relu6", "op": "_FusedConv2D", "input": ["StatefulPartitionedCall/functional_1/block_15_add_1/ArithmeticOptimizer/AddOpsRewrite_Add", "StatefulPartitionedCall/functional_1/block_16_expand_1/convolution/merged_input", "StatefulPartitionedCall/functional_1/block_16_expand_BN_1/batchnorm/sub"], "device": "/device:CPU:0", "attr": {"fused_ops": {"list": {"s": ["Qmlhc0FkZA==", "UmVsdTY="]}}, "num_host_args": {"i": "0"}, "num_args": {"i": "1"}, "epsilon": {"f": 0.0}, "TArgs": {"list": {"type": ["DT_FLOAT"]}}, "use_cudnn_on_gpu": {"b": true}, "filter_format": {"s": "SFdJTw=="}, "T": {"type": "DT_FLOAT"}, "dilations": {"list": {"i": ["1", "1", "1", "1"]}}, "strides": {"list": {"i": ["1", "1", "1", "1"]}}, "padding": {"s": "U0FNRQ=="}, "data_format": {"s": "TkhXQw=="}, "explicit_paddings": {"list": {}}, "leakyrelu_alpha": {"f": 0.2}}}, {"name": "StatefulPartitionedCall/functional_1/block_16_depthwise_1/depthwise", "op": "DepthwiseConv2dNative", "input": ["StatefulPartitionedCall/functional_1/block_16_expand_relu_1/Relu6", "StatefulPartitionedCall/functional_1/block_16_depthwise_1/depthwise/ReadVariableOp"], "attr": {"explicit_paddings": {"list": {}}, "strides": {"list": {"i": ["1", "1", "1", "1"]}}, "dilations": {"list": {"i": ["1", "1", "1", "1"]}}, "T": {"type": "DT_FLOAT"}, "data_format": {"s": "TkhXQw=="}, "padding": {"s": "U0FNRQ=="}}}, {"name": "StatefulPartitionedCall/functional_1/block_16_depthwise_BN_1/batchnorm/mul_1", "op": "Mul", "input": ["StatefulPartitionedCall/functional_1/block_16_depthwise_1/depthwise", "StatefulPartitionedCall/functional_1/block_16_depthwise_BN_1/batchnorm/mul"], "attr": {"T": {"type": "DT_FLOAT"}}}, {"name": "StatefulPartitionedCall/functional_1/block_16_depthwise_BN_1/batchnorm/add_1", "op": "AddV2", "input": ["StatefulPartitionedCall/functional_1/block_16_depthwise_BN_1/batchnorm/mul_1", "StatefulPartitionedCall/functional_1/block_16_depthwise_BN_1/batchnorm/sub"], "attr": {"T": {"type": "DT_FLOAT"}}}, {"name": "StatefulPartitionedCall/functional_1/block_16_depthwise_relu_1/Relu6", "op": "Relu6", "input": ["StatefulPartitionedCall/functional_1/block_16_depthwise_BN_1/batchnorm/add_1"], "attr": {"T": {"type": "DT_FLOAT"}}}, {"name": "StatefulPartitionedCall/functional_1/block_16_project_BN_1/batchnorm/add_1", "op": "_FusedConv2D", "input": ["StatefulPartitionedCall/functional_1/block_16_depthwise_relu_1/Relu6", "StatefulPartitionedCall/functional_1/block_16_project_1/convolution/merged_input", "StatefulPartitionedCall/functional_1/block_16_project_BN_1/batchnorm/sub"], "device": "/device:CPU:0", "attr": {"strides": {"list": {"i": ["1", "1", "1", "1"]}}, "data_format": {"s": "TkhXQw=="}, "explicit_paddings": {"list": {}}, "use_cudnn_on_gpu": {"b": true}, "epsilon": {"f": 0.0}, "padding": {"s": "U0FNRQ=="}, "num_host_args": {"i": "0"}, "filter_format": {"s": "SFdJTw=="}, "T": {"type": "DT_FLOAT"}, "TArgs": {"list": {"type": ["DT_FLOAT"]}}, "dilations": {"list": {"i": ["1", "1", "1", "1"]}}, "fused_ops": {"list": {"s": ["Qmlhc0FkZA=="]}}, "num_args": {"i": "1"}, "leakyrelu_alpha": {"f": 0.2}}}, {"name": "StatefulPartitionedCall/functional_1/out_relu_1/Relu6", "op": "_FusedConv2D", "input": ["StatefulPartitionedCall/functional_1/block_16_project_BN_1/batchnorm/add_1", "StatefulPartitionedCall/functional_1/Conv_1_1/convolution/merged_input", "StatefulPartitionedCall/functional_1/Conv_1_bn_1/batchnorm/sub"], "device": "/device:CPU:0", "attr": {"dilations": {"list": {"i": ["1", "1", "1", "1"]}}, "explicit_paddings": {"list": {}}, "use_cudnn_on_gpu": {"b": true}, "T": {"type": "DT_FLOAT"}, "TArgs": {"list": {"type": ["DT_FLOAT"]}}, "num_args": {"i": "1"}, "padding": {"s": "VkFMSUQ="}, "num_host_args": {"i": "0"}, "fused_ops": {"list": {"s": ["Qmlhc0FkZA==", "UmVsdTY="]}}, "epsilon": {"f": 0.0}, "leakyrelu_alpha": {"f": 0.2}, "filter_format": {"s": "SFdJTw=="}, "strides": {"list": {"i": ["1", "1", "1", "1"]}}, "data_format": {"s": "TkhXQw=="}}}, {"name": "StatefulPartitionedCall/functional_1/global_average_pooling2d_1/Mean", "op": "Mean", "input": ["StatefulPartitionedCall/functional_1/out_relu_1/Relu6", "StatefulPartitionedCall/functional_1/global_average_pooling2d_1/Mean/reduction_indices"], "attr": {"keep_dims": {"b": false}, "T": {"type": "DT_FLOAT"}, "Tidx": {"type": "DT_INT32"}}}, {"name": "StatefulPartitionedCall/functional_1/dense_1/Relu", "op": "_FusedMatMul", "input": ["StatefulPartitionedCall/functional_1/global_average_pooling2d_1/Mean", "StatefulPartitionedCall/functional_1/dense_1/Cast/ReadVariableOp", "StatefulPartitionedCall/functional_1/dense_1/Add/ReadVariableOp"], "device": "/device:CPU:0", "attr": {"num_args": {"i": "1"}, "transpose_a": {"b": false}, "epsilon": {"f": 0.0}, "T": {"type": "DT_FLOAT"}, "transpose_b": {"b": false}, "leakyrelu_alpha": {"f": 0.2}, "fused_ops": {"list": {"s": ["Qmlhc0FkZA==", "UmVsdQ=="]}}}}, {"name": "StatefulPartitionedCall/functional_1/dense_1_2/Add", "op": "_FusedMatMul", "input": ["StatefulPartitionedCall/functional_1/dense_1/Relu", "StatefulPartitionedCall/functional_1/dense_1_2/Cast/ReadVariableOp", "StatefulPartitionedCall/functional_1/dense_1_2/Add/ReadVariableOp"], "device": "/device:CPU:0", "attr": {"epsilon": {"f": 0.0}, "transpose_a": {"b": false}, "T": {"type": "DT_FLOAT"}, "num_args": {"i": "1"}, "leakyrelu_alpha": {"f": 0.2}, "transpose_b": {"b": false}, "fused_ops": {"list": {"s": ["Qmlhc0FkZA=="]}}}}, {"name": "StatefulPartitionedCall/functional_1/dense_1_2/Softmax", "op": "Softmax", "input": ["StatefulPartitionedCall/functional_1/dense_1_2/Add"], "attr": {"T": {"type": "DT_FLOAT"}}}, {"name": "Identity", "op": "Identity", "input": ["StatefulPartitionedCall/functional_1/dense_1_2/Softmax"], "attr": {"T": {"type": "DT_FLOAT"}}}], "library": {}, "versions": {"producer": 1994}}, "weightsManifest": [{"paths": ["group1-shard1of2.bin", "group1-shard2of2.bin"], "weights": [{"name": "StatefulPartitionedCall/functional_1/block_15_project_BN_1/batchnorm/sub", "shape": [160], "dtype": "float32", "quantization": {"dtype": "uint16", "min": -8.41939121039552, "scale": 0.00021051109414665635, "original_dtype": "float32"}}, {"name": "StatefulPartitionedCall/functional_1/block_14_project_BN_1/batchnorm/sub", "shape": [160], "dtype": "float32", "quantization": {"dtype": "uint16", "min": -5.516962633891828, "scale": 0.0001458780674764491, "original_dtype": "float32"}}, {"name": "StatefulPartitionedCall/functional_1/block_12_project_BN_1/batchnorm/sub", "shape": [96], "dtype": "float32", "quantization": {"dtype": "uint16", "min": -19.669173165790873, "scale": 0.0004599900179090476, "original_dtype": "float32"}}, {"name": "StatefulPartitionedCall/functional_1/block_11_project_BN_1/batchnorm/sub", "shape": [96], "dtype": "float32", "quantization": {"dtype": "uint16", "min": -13.980446346111533, "scale": 0.0003509236262484383, "original_dtype": "float32"}}, {"name": "StatefulPartitionedCall/functional_1/block_9_project_BN_1/batchnorm/sub", "shape": [64], "dtype": "float32", "quantization": {"dtype": "uint16", "min": -5.415447018178711, "scale": 0.0001830408645365616, "original_dtype": "float32"}}, {"name": "StatefulPartitionedCall/functional_1/block_8_project_BN_1/batchnorm/sub", "shape": [64], "dtype": "float32", "quantization": {"dtype": "uint16", "min": -3.6912958961516504, "scale": 0.00018654214150756268, "original_dtype": "float32"}}, {"name": "StatefulPartitionedCall/functional_1/block_7_project_BN_1/batchnorm/sub", "shape": [64], "dtype": "float32", "quantization": {"dtype": "uint16", "min": -14.645318594842552, "scale": 0.00043927170350457564, "original_dtype": "float32"}}, {"name": "StatefulPartitionedCall/functional_1/block_5_project_BN_1/batchnorm/sub", "shape": [32], "dtype": "float32", "quantization": {"dtype": "uint16", "min": -18.77897459310862, "scale": 0.00036162092418849645, "original_dtype": "float32"}}, {"name": "StatefulPartitionedCall/functional_1/block_4_project_BN_1/batchnorm/sub", "shape": [32], "dtype": "float32", "quantization": {"dtype": "uint16", "min": -15.556344877985055, "scale": 0.000618813193762085, "original_dtype": "float32"}}, {"name": "StatefulPartitionedCall/functional_1/block_2_project_BN_1/batchnorm/sub", "shape": [24], "dtype": "float32", "quantization": {"dtype": "uint16", "min": -16.83543738844448, "scale": 0.0005145304825319218, "original_dtype": "float32"}}, {"name": "StatefulPartitionedCall/functional_1/Conv1_1/convolution/merged_input", "shape": [3, 3, 3, 32], "dtype": "float32", "quantization": {"dtype": "uint16", "min": -4.034464134725779, "scale": 0.00010467979903805762, "original_dtype": "float32"}}, {"name": "StatefulPartitionedCall/functional_1/bn_Conv1_1/batchnorm/sub", "shape": [32], "dtype": "float32", "quantization": {"dtype": "uint16", "min": -6.418547790383569, "scale": 0.00017298336586399593, "original_dtype": "float32"}}, {"name": "StatefulPartitionedCall/functional_1/expanded_conv_depthwise_1/depthwise/ReadVariableOp", "shape": [3, 3, 32, 1], "dtype": "float32", "quantization": {"dtype": "uint16", "min": -29.91980813345775, "scale": 0.0008676180406976294, "original_dtype": "float32"}}, {"name": "StatefulPartitionedCall/functional_1/expanded_conv_depthwise_BN_1/batchnorm/mul", "shape": [32], "dtype": "float32", "quantization": {"dtype": "uint16", "min": -1.1391550518004456, "scale": 0.00035094117430697647, "original_dtype": "float32"}}, {"name": "StatefulPartitionedCall/functional_1/expanded_conv_depthwise_BN_1/batchnorm/sub", "shape": [32], "dtype": "float32", "quantization": {"dtype": "uint16", "min": -1.5207722089542917, "scale": 0.00011464547372440947, "original_dtype": "float32"}}, {"name": "StatefulPartitionedCall/functional_1/expanded_conv_project_1/convolution/merged_input", "shape": [1, 1, 32, 16], "dtype": "float32", "quantization": {"dtype": "uint16", "min": -7.771594859075426, "scale": 0.00023782345489550849, "original_dtype": "float32"}}, {"name": "StatefulPartitionedCall/functional_1/expanded_conv_project_BN_1/batchnorm/sub", "shape": [16], "dtype": "float32", "quantization": {"dtype": "uint16", "min": -32.37766252213415, "scale": 0.0011771127216656057, "original_dtype": "float32"}}, {"name": "StatefulPartitionedCall/functional_1/block_1_expand_1/convolution/merged_input", "shape": [1, 1, 16, 96], "dtype": "float32", "quantization": {"dtype": "uint16", "min": -1.168758312251754, "scale": 3.238454730539634e-05, "original_dtype": "float32"}}, {"name": "StatefulPartitionedCall/functional_1/block_1_expand_BN_1/batchnorm/sub", "shape": [96], "dtype": "float32", "quantization": {"dtype": "uint16", "min": -2.1329019251682486, "scale": 9.78979173437485e-05, "original_dtype": "float32"}}, {"name": "StatefulPartitionedCall/functional_1/block_1_pad_1/Const", "shape": [4, 2], "dtype": "int32"}, {"name": "StatefulPartitionedCall/functional_1/block_1_depthwise_1/depthwise/ReadVariableOp", "shape": [3, 3, 96, 1], "dtype": "float32", "quantization": {"dtype": "uint16", "min": -3.9610048836280014, "scale": 0.0001180134931363366, "original_dtype": "float32"}}, {"name": "StatefulPartitionedCall/functional_1/block_1_depthwise_BN_1/batchnorm/mul", "shape": [96], "dtype": "float32", "quantization": {"dtype": "uint16", "min": -0.2037620524026495, "scale": 2.559503233295434e-05, "original_dtype": "float32"}}, {"name": "StatefulPartitionedCall/functional_1/block_1_depthwise_BN_1/batchnorm/sub", "shape": [96], "dtype": "float32", "quantization": {"dtype": "uint16", "min": -16.576463220051625, "scale": 0.00037784557498237164, "original_dtype": "float32"}}, {"name": "StatefulPartitionedCall/functional_1/block_1_project_1/convolution/merged_input", "shape": [1, 1, 96, 24], "dtype": "float32", "quantization": {"dtype": "uint16", "min": -3.7682196283227674, "scale": 0.00010477463167865334, "original_dtype": "float32"}}, {"name": "StatefulPartitionedCall/functional_1/block_1_project_BN_1/batchnorm/sub", "shape": [24], "dtype": "float32", "quantization": {"dtype": "uint16", "min": -34.90021208762177, "scale": 0.0008437747712301574, "original_dtype": "float32"}}, {"name": "StatefulPartitionedCall/functional_1/block_2_expand_1/convolution/merged_input", "shape": [1, 1, 24, 144], "dtype": "float32", "quantization": {"dtype": "uint16", "min": -0.47115811600677476, "scale": 1.7269925812138948e-05, "original_dtype": "float32"}}, {"name": "StatefulPartitionedCall/functional_1/block_2_expand_BN_1/batchnorm/sub", "shape": [144], "dtype": "float32", "quantization": {"dtype": "uint16", "min": -2.5849142998063592, "scale": 0.0001310011301341151, "original_dtype": "float32"}}, {"name": "StatefulPartitionedCall/functional_1/block_2_depthwise_1/depthwise/ReadVariableOp", "shape": [3, 3, 144, 1], "dtype": "float32", "quantization": {"dtype": "uint16", "min": -7.590497956465481, "scale": 0.00024312933877211664, "original_dtype": "float32"}}, {"name": "StatefulPartitionedCall/functional_1/block_2_depthwise_BN_1/batchnorm/mul", "shape": [144], "dtype": "float32", "quantization": {"dtype": "uint16", "min": 0.08740126341581345, "scale": 2.2817116526032308e-05, "original_dtype": "float32"}}, {"name": "StatefulPartitionedCall/functional_1/block_2_depthwise_BN_1/batchnorm/sub", "shape": [144], "dtype": "float32", "quantization": {"dtype": "uint16", "min": -3.1415868956918818, "scale": 0.000331916206623548, "original_dtype": "float32"}}, {"name": "StatefulPartitionedCall/functional_1/block_2_project_1/convolution/merged_input", "shape": [1, 1, 144, 24], "dtype": "float32", "quantization": {"dtype": "uint16", "min": -4.7603066485215715, "scale": 0.00014945548486771442, "original_dtype": "float32"}}, {"name": "StatefulPartitionedCall/functional_1/block_3_expand_1/convolution/merged_input", "shape": [1, 1, 24, 144], "dtype": "float32", "quantization": {"dtype": "uint16", "min": -0.43763607093195916, "scale": 1.2991245018314458e-05, "original_dtype": "float32"}}, {"name": "StatefulPartitionedCall/functional_1/block_3_expand_BN_1/batchnorm/sub", "shape": [144], "dtype": "float32", "quantization": {"dtype": "uint16", "min": -2.8415360814911863, "scale": 0.00012114325040463789, "original_dtype": "float32"}}, {"name": "StatefulPartitionedCall/functional_1/block_3_pad_1/Const", "shape": [4, 2], "dtype": "int32"}, {"name": "StatefulPartitionedCall/functional_1/block_3_depthwise_1/depthwise/ReadVariableOp", "shape": [3, 3, 144, 1], "dtype": "float32", "quantization": {"dtype": "uint16", "min": -2.4814391789269354, "scale": 7.706811537756803e-05, "original_dtype": "float32"}}, {"name": "StatefulPartitionedCall/functional_1/block_3_depthwise_BN_1/batchnorm/mul", "shape": [144], "dtype": "float32", "quantization": {"dtype": "uint16", "min": 0.06361149251461029, "scale": 2.484076777266321e-05, "original_dtype": "float32"}}, {"name": "StatefulPartitionedCall/functional_1/block_3_depthwise_BN_1/batchnorm/sub", "shape": [144], "dtype": "float32", "quantization": {"dtype": "uint16", "min": -1.8806261435375067, "scale": 0.0001317149561239324, "original_dtype": "float32"}}, {"name": "StatefulPartitionedCall/functional_1/block_3_project_1/convolution/merged_input", "shape": [1, 1, 144, 32], "dtype": "float32", "quantization": {"dtype": "uint16", "min": -2.439131337310117, "scale": 7.646419440453046e-05, "original_dtype": "float32"}}, {"name": "StatefulPartitionedCall/functional_1/block_3_project_BN_1/batchnorm/sub", "shape": [32], "dtype": "float32", "quantization": {"dtype": "uint16", "min": -17.428812663575336, "scale": 0.0005968975877110633, "original_dtype": "float32"}}, {"name": "StatefulPartitionedCall/functional_1/block_4_expand_1/convolution/merged_input", "shape": [1, 1, 32, 192], "dtype": "float32", "quantization": {"dtype": "uint16", "min": -0.26954934297696104, "scale": 7.195657847756569e-06, "original_dtype": "float32"}}, {"name": "StatefulPartitionedCall/functional_1/block_4_expand_BN_1/batchnorm/sub", "shape": [192], "dtype": "float32", "quantization": {"dtype": "uint16", "min": -2.369104558852005, "scale": 9.051366084098743e-05, "original_dtype": "float32"}}, {"name": "StatefulPartitionedCall/functional_1/block_4_depthwise_1/depthwise/ReadVariableOp", "shape": [3, 3, 192, 1], "dtype": "float32", "quantization": {"dtype": "uint16", "min": -4.858439938911286, "scale": 0.0001335873941794189, "original_dtype": "float32"}}, {"name": "StatefulPartitionedCall/functional_1/block_4_depthwise_BN_1/batchnorm/mul", "shape": [192], "dtype": "float32", "quantization": {"dtype": "uint16", "min": 0.1474112719297409, "scale": 3.914170332683291e-05, "original_dtype": "float32"}}, {"name": "StatefulPartitionedCall/functional_1/block_4_depthwise_BN_1/batchnorm/sub", "shape": [192], "dtype": "float32", "quantization": {"dtype": "uint16", "min": -5.62587591748839, "scale": 0.0001813277869363885, "original_dtype": "float32"}}, {"name": "StatefulPartitionedCall/functional_1/block_4_project_1/convolution/merged_input", "shape": [1, 1, 192, 32], "dtype": "float32", "quantization": {"dtype": "uint16", "min": -5.040983305867281, "scale": 0.0001223777263999631, "original_dtype": "float32"}}, {"name": "StatefulPartitionedCall/functional_1/block_5_expand_1/convolution/merged_input", "shape": [1, 1, 32, 192], "dtype": "float32", "quantization": {"dtype": "uint16", "min": -0.18074672356926624, "scale": 5.7434611874568236e-06, "original_dtype": "float32"}}, {"name": "StatefulPartitionedCall/functional_1/block_5_expand_BN_1/batchnorm/sub", "shape": [192], "dtype": "float32", "quantization": {"dtype": "uint16", "min": -1.6058009849202581, "scale": 7.147376084569627e-05, "original_dtype": "float32"}}, {"name": "StatefulPartitionedCall/functional_1/block_5_depthwise_1/depthwise/ReadVariableOp", "shape": [3, 3, 192, 1], "dtype": "float32", "quantization": {"dtype": "uint16", "min": -4.189533067806422, "scale": 0.0001254651733291334, "original_dtype": "float32"}}, {"name": "StatefulPartitionedCall/functional_1/block_5_depthwise_BN_1/batchnorm/mul", "shape": [192], "dtype": "float32", "quantization": {"dtype": "uint16", "min": 0.17766575515270233, "scale": 2.7869354035076345e-05, "original_dtype": "float32"}}, {"name": "StatefulPartitionedCall/functional_1/block_5_depthwise_BN_1/batchnorm/sub", "shape": [192], "dtype": "float32", "quantization": {"dtype": "uint16", "min": -13.452249239019846, "scale": 0.0004120642418372801, "original_dtype": "float32"}}, {"name": "StatefulPartitionedCall/functional_1/block_5_project_1/convolution/merged_input", "shape": [1, 1, 192, 32], "dtype": "float32", "quantization": {"dtype": "uint16", "min": -3.7253284681468184, "scale": 9.204478215469124e-05, "original_dtype": "float32"}}, {"name": "StatefulPartitionedCall/functional_1/block_6_expand_1/convolution/merged_input", "shape": [1, 1, 32, 192], "dtype": "float32", "quantization": {"dtype": "uint16", "min": -0.23903176435809792, "scale": 6.921234779884698e-06, "original_dtype": "float32"}}, {"name": "StatefulPartitionedCall/functional_1/block_6_expand_BN_1/batchnorm/sub", "shape": [192], "dtype": "float32", "quantization": {"dtype": "uint16", "min": -2.8262172180154534, "scale": 7.506353663954354e-05, "original_dtype": "float32"}}, {"name": "StatefulPartitionedCall/functional_1/block_6_pad_1/Const", "shape": [4, 2], "dtype": "int32"}, {"name": "StatefulPartitionedCall/functional_1/block_6_depthwise_1/depthwise/ReadVariableOp", "shape": [3, 3, 192, 1], "dtype": "float32", "quantization": {"dtype": "uint16", "min": -2.243722192153529, "scale": 7.190034583584981e-05, "original_dtype": "float32"}}, {"name": "StatefulPartitionedCall/functional_1/block_6_depthwise_BN_1/batchnorm/mul", "shape": [192], "dtype": "float32", "quantization": {"dtype": "uint16", "min": 0.11375218629837036, "scale": 1.0391211013112905e-05, "original_dtype": "float32"}}, {"name": "StatefulPartitionedCall/functional_1/block_6_depthwise_BN_1/batchnorm/sub", "shape": [192], "dtype": "float32", "quantization": {"dtype": "uint16", "min": -0.8433178653194618, "scale": 0.00010863298535610742, "original_dtype": "float32"}}, {"name": "StatefulPartitionedCall/functional_1/block_6_project_1/convolution/merged_input", "shape": [1, 1, 192, 64], "dtype": "float32", "quantization": {"dtype": "uint16", "min": -2.091621864985263, "scale": 5.721848898879121e-05, "original_dtype": "float32"}}, {"name": "StatefulPartitionedCall/functional_1/block_6_project_BN_1/batchnorm/sub", "shape": [64], "dtype": "float32", "quantization": {"dtype": "uint16", "min": -28.50375907262312, "scale": 0.000728009579664984, "original_dtype": "float32"}}, {"name": "StatefulPartitionedCall/functional_1/block_7_expand_1/convolution/merged_input", "shape": [1, 1, 64, 384], "dtype": "float32", "quantization": {"dtype": "uint16", "min": -0.20548338969634947, "scale": 6.42999623545231e-06, "original_dtype": "float32"}}, {"name": "StatefulPartitionedCall/functional_1/block_7_expand_BN_1/batchnorm/sub", "shape": [384], "dtype": "float32", "quantization": {"dtype": "uint16", "min": -1.8021599149198293, "scale": 7.543258611694066e-05, "original_dtype": "float32"}}, {"name": "StatefulPartitionedCall/functional_1/block_7_depthwise_1/depthwise/ReadVariableOp", "shape": [3, 3, 384, 1], "dtype": "float32", "quantization": {"dtype": "uint16", "min": -2.966407219015907, "scale": 8.094101391622983e-05, "original_dtype": "float32"}}, {"name": "StatefulPartitionedCall/functional_1/block_7_depthwise_BN_1/batchnorm/mul", "shape": [384], "dtype": "float32", "quantization": {"dtype": "uint16", "min": 0.3285819888114929, "scale": 0.0004520929195319359, "original_dtype": "float32"}}, {"name": "StatefulPartitionedCall/functional_1/block_7_depthwise_BN_1/batchnorm/sub", "shape": [384], "dtype": "float32", "quantization": {"dtype": "uint16", "min": -13.234616735244021, "scale": 0.0003225359280394809, "original_dtype": "float32"}}, {"name": "StatefulPartitionedCall/functional_1/block_7_project_1/convolution/merged_input", "shape": [1, 1, 384, 64], "dtype": "float32", "quantization": {"dtype": "uint16", "min": -2.8170164997557476, "scale": 9.951308816432626e-05, "original_dtype": "float32"}}, {"name": "StatefulPartitionedCall/functional_1/block_8_expand_1/convolution/merged_input", "shape": [1, 1, 64, 384], "dtype": "float32", "quantization": {"dtype": "uint16", "min": -0.2613772320403581, "scale": 8.016722857329105e-06, "original_dtype": "float32"}}, {"name": "StatefulPartitionedCall/functional_1/block_8_expand_BN_1/batchnorm/sub", "shape": [384], "dtype": "float32", "quantization": {"dtype": "uint16", "min": -1.6185100638330725, "scale": 6.82713993264889e-05, "original_dtype": "float32"}}, {"name": "StatefulPartitionedCall/functional_1/block_8_depthwise_1/depthwise/ReadVariableOp", "shape": [3, 3, 384, 1], "dtype": "float32", "quantization": {"dtype": "uint16", "min": -2.484504341506172, "scale": 8.792215802626414e-05, "original_dtype": "float32"}}, {"name": "StatefulPartitionedCall/functional_1/block_8_depthwise_BN_1/batchnorm/mul", "shape": [384], "dtype": "float32", "quantization": {"dtype": "uint16", "min": 0.2913219928741455, "scale": 0.00044978506606749486, "original_dtype": "float32"}}, {"name": "StatefulPartitionedCall/functional_1/block_8_depthwise_BN_1/batchnorm/sub", "shape": [384], "dtype": "float32", "quantization": {"dtype": "uint16", "min": -4.539105793190482, "scale": 0.000248854484275794, "original_dtype": "float32"}}, {"name": "StatefulPartitionedCall/functional_1/block_8_project_1/convolution/merged_input", "shape": [1, 1, 384, 64], "dtype": "float32", "quantization": {"dtype": "uint16", "min": -2.4692084512767325, "scale": 6.811797432416708e-05, "original_dtype": "float32"}}, {"name": "StatefulPartitionedCall/functional_1/block_9_expand_1/convolution/merged_input", "shape": [1, 1, 64, 384], "dtype": "float32", "quantization": {"dtype": "uint16", "min": -0.17600026991480663, "scale": 5.541221268018596e-06, "original_dtype": "float32"}}, {"name": "StatefulPartitionedCall/functional_1/block_9_expand_BN_1/batchnorm/sub", "shape": [384], "dtype": "float32", "quantization": {"dtype": "uint16", "min": -1.3277631459414772, "scale": 4.70054570730158e-05, "original_dtype": "float32"}}, {"name": "StatefulPartitionedCall/functional_1/block_9_depthwise_1/depthwise/ReadVariableOp", "shape": [3, 3, 384, 1], "dtype": "float32", "quantization": {"dtype": "uint16", "min": -2.7002636827192528, "scale": 7.862402989515644e-05, "original_dtype": "float32"}}, {"name": "StatefulPartitionedCall/functional_1/block_9_depthwise_BN_1/batchnorm/mul", "shape": [384], "dtype": "float32", "quantization": {"dtype": "uint16", "min": 0.2599080502986908, "scale": 0.00035980317533866596, "original_dtype": "float32"}}, {"name": "StatefulPartitionedCall/functional_1/block_9_depthwise_BN_1/batchnorm/sub", "shape": [384], "dtype": "float32", "quantization": {"dtype": "uint16", "min": -14.853715622298658, "scale": 0.00037848682946359176, "original_dtype": "float32"}}, {"name": "StatefulPartitionedCall/functional_1/block_9_project_1/convolution/merged_input", "shape": [1, 1, 384, 64], "dtype": "float32", "quantization": {"dtype": "uint16", "min": -2.149977095136019, "scale": 5.83804571411198e-05, "original_dtype": "float32"}}, {"name": "StatefulPartitionedCall/functional_1/block_10_expand_1/convolution/merged_input", "shape": [1, 1, 64, 384], "dtype": "float32", "quantization": {"dtype": "uint16", "min": -0.328375420432492, "scale": 9.618213304604201e-06, "original_dtype": "float32"}}, {"name": "StatefulPartitionedCall/functional_1/block_10_expand_BN_1/batchnorm/sub", "shape": [384], "dtype": "float32", "quantization": {"dtype": "uint16", "min": -1.3669200170173827, "scale": 5.9766517293401375e-05, "original_dtype": "float32"}}, {"name": "StatefulPartitionedCall/functional_1/block_10_depthwise_1/depthwise/ReadVariableOp", "shape": [3, 3, 384, 1], "dtype": "float32", "quantization": {"dtype": "uint16", "min": -4.69785583651365, "scale": 0.00014483908853132882, "original_dtype": "float32"}}, {"name": "StatefulPartitionedCall/functional_1/block_10_depthwise_BN_1/batchnorm/mul", "shape": [384], "dtype": "float32", "quantization": {"dtype": "uint16", "min": 0.17079474031925201, "scale": 2.5400822692144068e-05, "original_dtype": "float32"}}, {"name": "StatefulPartitionedCall/functional_1/block_10_depthwise_BN_1/batchnorm/sub", "shape": [384], "dtype": "float32", "quantization": {"dtype": "uint16", "min": -4.706741608348802, "scale": 0.00017027500211087482, "original_dtype": "float32"}}, {"name": "StatefulPartitionedCall/functional_1/block_10_project_1/convolution/merged_input", "shape": [1, 1, 384, 96], "dtype": "float32", "quantization": {"dtype": "uint16", "min": -0.9982457197102673, "scale": 2.9829544888996484e-05, "original_dtype": "float32"}}, {"name": "StatefulPartitionedCall/functional_1/block_10_project_BN_1/batchnorm/sub", "shape": [96], "dtype": "float32", "quantization": {"dtype": "uint16", "min": -14.968760228522665, "scale": 0.00042969227892188154, "original_dtype": "float32"}}, {"name": "StatefulPartitionedCall/functional_1/block_11_expand_1/convolution/merged_input", "shape": [1, 1, 96, 576], "dtype": "float32", "quantization": {"dtype": "uint16", "min": -0.18218225981502137, "scale": 5.27529346503609e-06, "original_dtype": "float32"}}, {"name": "StatefulPartitionedCall/functional_1/block_11_expand_BN_1/batchnorm/sub", "shape": [576], "dtype": "float32", "quantization": {"dtype": "uint16", "min": -1.6322479511222279, "scale": 5.3722408949814955e-05, "original_dtype": "float32"}}, {"name": "StatefulPartitionedCall/functional_1/block_11_depthwise_1/depthwise/ReadVariableOp", "shape": [3, 3, 576, 1], "dtype": "float32", "quantization": {"dtype": "uint16", "min": -2.528547027348071, "scale": 7.812355642798218e-05, "original_dtype": "float32"}}, {"name": "StatefulPartitionedCall/functional_1/block_11_depthwise_BN_1/batchnorm/mul", "shape": [576], "dtype": "float32", "quantization": {"dtype": "uint16", "min": 0.3066096603870392, "scale": 0.00038314875898276074, "original_dtype": "float32"}}, {"name": "StatefulPartitionedCall/functional_1/block_11_depthwise_BN_1/batchnorm/sub", "shape": [576], "dtype": "float32", "quantization": {"dtype": "uint16", "min": -6.86321839275609, "scale": 0.00019650742692424239, "original_dtype": "float32"}}, {"name": "StatefulPartitionedCall/functional_1/block_11_project_1/convolution/merged_input", "shape": [1, 1, 576, 96], "dtype": "float32", "quantization": {"dtype": "uint16", "min": -1.1334556610222093, "scale": 3.878907843750075e-05, "original_dtype": "float32"}}, {"name": "StatefulPartitionedCall/functional_1/block_12_expand_1/convolution/merged_input", "shape": [1, 1, 96, 576], "dtype": "float32", "quantization": {"dtype": "uint16", "min": -0.1876076025073603, "scale": 6.0144135705882824e-06, "original_dtype": "float32"}}, {"name": "StatefulPartitionedCall/functional_1/block_12_expand_BN_1/batchnorm/sub", "shape": [576], "dtype": "float32", "quantization": {"dtype": "uint16", "min": -2.0787360575085074, "scale": 6.587868598302933e-05, "original_dtype": "float32"}}, {"name": "StatefulPartitionedCall/functional_1/block_12_depthwise_1/depthwise/ReadVariableOp", "shape": [3, 3, 576, 1], "dtype": "float32", "quantization": {"dtype": "uint16", "min": -2.7424455415905133, "scale": 8.674781873823349e-05, "original_dtype": "float32"}}, {"name": "StatefulPartitionedCall/functional_1/block_12_depthwise_BN_1/batchnorm/mul", "shape": [576], "dtype": "float32", "quantization": {"dtype": "uint16", "min": 0.1509425938129425, "scale": 0.0007022798761692457, "original_dtype": "float32"}}, {"name": "StatefulPartitionedCall/functional_1/block_12_depthwise_BN_1/batchnorm/sub", "shape": [576], "dtype": "float32", "quantization": {"dtype": "uint16", "min": -10.825392713522742, "scale": 0.0002518470294417165, "original_dtype": "float32"}}, {"name": "StatefulPartitionedCall/functional_1/block_12_project_1/convolution/merged_input", "shape": [1, 1, 576, 96], "dtype": "float32", "quantization": {"dtype": "uint16", "min": -5.1241422226238535, "scale": 0.00017568889195034812, "original_dtype": "float32"}}, {"name": "StatefulPartitionedCall/functional_1/block_13_expand_1/convolution/merged_input", "shape": [1, 1, 96, 576], "dtype": "float32", "quantization": {"dtype": "uint16", "min": -0.18346632445891753, "scale": 5.513638601319835e-06, "original_dtype": "float32"}}, {"name": "StatefulPartitionedCall/functional_1/block_13_expand_BN_1/batchnorm/sub", "shape": [576], "dtype": "float32", "quantization": {"dtype": "uint16", "min": -2.802533436421809, "scale": 6.839784830433467e-05, "original_dtype": "float32"}}, {"name": "StatefulPartitionedCall/functional_1/block_13_pad_1/Const", "shape": [4, 2], "dtype": "int32"}, {"name": "StatefulPartitionedCall/functional_1/block_13_depthwise_1/depthwise/ReadVariableOp", "shape": [3, 3, 576, 1], "dtype": "float32", "quantization": {"dtype": "uint16", "min": -1.326597917413715, "scale": 4.322292184978871e-05, "original_dtype": "float32"}}, {"name": "StatefulPartitionedCall/functional_1/block_13_depthwise_BN_1/batchnorm/mul", "shape": [576], "dtype": "float32", "quantization": {"dtype": "uint16", "min": 0.18204213678836823, "scale": 2.567295493528064e-05, "original_dtype": "float32"}}, {"name": "StatefulPartitionedCall/functional_1/block_13_depthwise_BN_1/batchnorm/sub", "shape": [576], "dtype": "float32", "quantization": {"dtype": "uint16", "min": -2.387875690752703, "scale": 0.0001143344836367107, "original_dtype": "float32"}}, {"name": "StatefulPartitionedCall/functional_1/block_13_project_1/convolution/merged_input", "shape": [1, 1, 576, 160], "dtype": "float32", "quantization": {"dtype": "uint16", "min": -1.7931687568339456, "scale": 5.390394868135471e-05, "original_dtype": "float32"}}, {"name": "StatefulPartitionedCall/functional_1/block_13_project_BN_1/batchnorm/sub", "shape": [160], "dtype": "float32", "quantization": {"dtype": "uint16", "min": -29.389556857465816, "scale": 0.0009845417861199229, "original_dtype": "float32"}}, {"name": "StatefulPartitionedCall/functional_1/block_14_expand_1/convolution/merged_input", "shape": [1, 1, 160, 960], "dtype": "float32", "quantization": {"dtype": "uint16", "min": -0.194987122523409, "scale": 6.595424249878535e-06, "original_dtype": "float32"}}, {"name": "StatefulPartitionedCall/functional_1/block_14_expand_BN_1/batchnorm/sub", "shape": [960], "dtype": "float32", "quantization": {"dtype": "uint16", "min": -1.9882848861752835, "scale": 7.195067258360293e-05, "original_dtype": "float32"}}, {"name": "StatefulPartitionedCall/functional_1/block_14_depthwise_1/depthwise/ReadVariableOp", "shape": [3, 3, 960, 1], "dtype": "float32", "quantization": {"dtype": "uint16", "min": -3.461771974085561, "scale": 9.099150937273126e-05, "original_dtype": "float32"}}, {"name": "StatefulPartitionedCall/functional_1/block_14_depthwise_BN_1/batchnorm/mul", "shape": [960], "dtype": "float32", "quantization": {"dtype": "uint16", "min": 0.16335931420326233, "scale": 0.0006776980002411917, "original_dtype": "float32"}}, {"name": "StatefulPartitionedCall/functional_1/block_14_depthwise_BN_1/batchnorm/sub", "shape": [960], "dtype": "float32", "quantization": {"dtype": "uint16", "min": -8.54043296563086, "scale": 0.00021518930068612326, "original_dtype": "float32"}}, {"name": "StatefulPartitionedCall/functional_1/block_14_project_1/convolution/merged_input", "shape": [1, 1, 960, 160], "dtype": "float32", "quantization": {"dtype": "uint16", "min": -0.703575228755276, "scale": 2.3015971368225197e-05, "original_dtype": "float32"}}, {"name": "StatefulPartitionedCall/functional_1/block_15_expand_1/convolution/merged_input", "shape": [1, 1, 160, 960], "dtype": "float32", "quantization": {"dtype": "uint16", "min": -0.16410459136584535, "scale": 5.6572184006427655e-06, "original_dtype": "float32"}}, {"name": "StatefulPartitionedCall/functional_1/block_15_expand_BN_1/batchnorm/sub", "shape": [960], "dtype": "float32", "quantization": {"dtype": "uint16", "min": -2.2274444028843168, "scale": 7.755725636783832e-05, "original_dtype": "float32"}}, {"name": "StatefulPartitionedCall/functional_1/block_15_depthwise_1/depthwise/ReadVariableOp", "shape": [3, 3, 960, 1], "dtype": "float32", "quantization": {"dtype": "uint16", "min": -3.0239463441621304, "scale": 9.652227470273965e-05, "original_dtype": "float32"}}, {"name": "StatefulPartitionedCall/functional_1/block_15_depthwise_BN_1/batchnorm/mul", "shape": [960], "dtype": "float32", "quantization": {"dtype": "uint16", "min": 0.03107161819934845, "scale": 0.0006732853513347154, "original_dtype": "float32"}}, {"name": "StatefulPartitionedCall/functional_1/block_15_depthwise_BN_1/batchnorm/sub", "shape": [960], "dtype": "float32", "quantization": {"dtype": "uint16", "min": -13.565226200249572, "scale": 0.00030496675435016235, "original_dtype": "float32"}}, {"name": "StatefulPartitionedCall/functional_1/block_15_project_1/convolution/merged_input", "shape": [1, 1, 960, 160], "dtype": "float32", "quantization": {"dtype": "uint16", "min": -0.9621653968285413, "scale": 2.8285671355495686e-05, "original_dtype": "float32"}}, {"name": "StatefulPartitionedCall/functional_1/block_16_expand_1/convolution/merged_input", "shape": [1, 1, 160, 960], "dtype": "float32", "quantization": {"dtype": "uint16", "min": -0.15704961770494172, "scale": 4.493808449838094e-06, "original_dtype": "float32"}}, {"name": "StatefulPartitionedCall/functional_1/block_16_expand_BN_1/batchnorm/sub", "shape": [960], "dtype": "float32", "quantization": {"dtype": "uint16", "min": -1.3736131252645492, "scale": 5.891542463069051e-05, "original_dtype": "float32"}}, {"name": "StatefulPartitionedCall/functional_1/block_16_depthwise_1/depthwise/ReadVariableOp", "shape": [3, 3, 960, 1], "dtype": "float32", "quantization": {"dtype": "uint16", "min": -3.4404730606908576, "scale": 0.00011193990761967976, "original_dtype": "float32"}}, {"name": "StatefulPartitionedCall/functional_1/block_16_depthwise_BN_1/batchnorm/mul", "shape": [960], "dtype": "float32", "quantization": {"dtype": "uint16", "min": 0.18982142210006714, "scale": 0.0011032637364169302, "original_dtype": "float32"}}, {"name": "StatefulPartitionedCall/functional_1/block_16_depthwise_BN_1/batchnorm/sub", "shape": [960], "dtype": "float32", "quantization": {"dtype": "uint16", "min": -13.628857595758488, "scale": 0.0003317718930781783, "original_dtype": "float32"}}, {"name": "StatefulPartitionedCall/functional_1/block_16_project_1/convolution/merged_input", "shape": [1, 1, 960, 320], "dtype": "float32", "quantization": {"dtype": "uint16", "min": -0.24665380263479533, "scale": 6.992113693014948e-06, "original_dtype": "float32"}}, {"name": "StatefulPartitionedCall/functional_1/block_16_project_BN_1/batchnorm/sub", "shape": [320], "dtype": "float32", "quantization": {"dtype": "uint16", "min": -5.4519315216537105, "scale": 0.00016592402220627276, "original_dtype": "float32"}}, {"name": "StatefulPartitionedCall/functional_1/Conv_1_1/convolution/merged_input", "shape": [1, 1, 320, 1280], "dtype": "float32", "quantization": {"dtype": "uint16", "min": -0.15541125528393307, "scale": 5.175027647561955e-06, "original_dtype": "float32"}}, {"name": "StatefulPartitionedCall/functional_1/Conv_1_bn_1/batchnorm/sub", "shape": [1280], "dtype": "float32", "quantization": {"dtype": "uint16", "min": -4.906888484954834, "scale": 3.5882674648185664e-05, "original_dtype": "float32"}}, {"name": "StatefulPartitionedCall/functional_1/global_average_pooling2d_1/Mean/reduction_indices", "shape": [2], "dtype": "int32"}, {"name": "StatefulPartitionedCall/functional_1/dense_1/Cast/ReadVariableOp", "shape": [1280, 128], "dtype": "float32", "quantization": {"dtype": "uint16", "min": -0.2883099006844338, "scale": 7.807352163248316e-06, "original_dtype": "float32"}}, {"name": "StatefulPartitionedCall/functional_1/dense_1/Add/ReadVariableOp", "shape": [128], "dtype": "float32", "quantization": {"dtype": "uint16", "min": -0.048176287288336346, "scale": 3.6011576684359654e-06, "original_dtype": "float32"}}, {"name": "StatefulPartitionedCall/functional_1/dense_1_2/Cast/ReadVariableOp", "shape": [128, 5], "dtype": "float32", "quantization": {"dtype": "uint16", "min": -0.3242144153166701, "scale": 8.12995349223075e-06, "original_dtype": "float32"}}, {"name": "StatefulPartitionedCall/functional_1/dense_1_2/Add/ReadVariableOp", "shape": [5], "dtype": "float32", "quantization": {"dtype": "uint16", "min": -0.044926658085157084, "scale": 1.627954418420737e-06, "original_dtype": "float32"}}]}]}